{"format": "graph-model", "generatedBy": "2.13.0", "convertedBy": "TensorFlow.js Converter v4.15.0", "signature": {"inputs": {"args_0": {"name": "args_0:0", "dtype": "DT_FLOAT", "tensorShape": {"dim": [{"size": "-1"}, {"size": "1024"}, {"size": "1024"}, {"size": "3"}]}}, "args_1": {"name": "args_1:0", "dtype": "DT_FLOAT", "tensorShape": {"dim": [{"size": "-1"}, {"size": "1"}, {"size": "2"}, {"size": "2"}]}}, "args_2": {"name": "args_2:0", "dtype": "DT_FLOAT", "tensorShape": {"dim": [{"size": "-1"}, {"size": "1"}, {"size": "2"}]}}}, "outputs": {"output_1": {"name": "Identity:0", "dtype": "DT_FLOAT", "tensorShape": {"dim": [{"size": "-1"}, {"size": "1"}, {"size": "-1"}, {"size": "1024"}, {"size": "1024"}]}}, "output_2": {"name": "Identity_1:0", "dtype": "DT_FLOAT", "tensorShape": {"dim": [{"size": "-1"}, {"size": "1"}, {"size": "-1"}]}}}}, "modelTopology": {"node": [{"name": "args_0", "op": "Placeholder", "attr": {"shape": {"shape": {"dim": [{"size": "-1"}, {"size": "1024"}, {"size": "1024"}, {"size": "3"}]}}, "dtype": {"type": "DT_FLOAT"}}}, {"name": "args_1", "op": "Placeholder", "attr": {"shape": {"shape": {"dim": [{"size": "-1"}, {"size": "1"}, {"size": "2"}, {"size": "2"}]}}, "dtype": {"type": "DT_FLOAT"}}}, {"name": "args_2", "op": "Placeholder", "attr": {"shape": {"shape": {"dim": [{"size": "-1"}, {"size": "1"}, {"size": "2"}]}}, "dtype": {"type": "DT_FLOAT"}}}, {"name": "StatefulPartitionedCall/efficient_sam/StatefulPartitionedCall/image_encoder/neck/3/batchnorm/ReadVariableOp", "op": "Const", "input": ["^args_0"], "attr": {"dtype": {"type": "DT_FLOAT"}, "value": {"tensor": {"dtype": "DT_FLOAT", "tensorShape": {"dim": [{"size": "256"}]}}}}}, {"name": "StatefulPartitionedCall/efficient_sam/StatefulPartitionedCall/image_encoder/neck/1/batchnorm/ReadVariableOp", "op": "Const", "input": ["^args_0"], "attr": {"dtype": {"type": "DT_FLOAT"}, "value": {"tensor": {"dtype": "DT_FLOAT", "tensorShape": {"dim": [{"size": "256"}]}}}}}, {"name": "StatefulPartitionedCall/efficient_sam/StatefulPartitionedCall/image_encoder/blocks.11/mlp/fc2/Tensordot/Const", "op": "Const", "input": ["^args_0"], "attr": {"value": {"tensor": {"dtype": "DT_INT32", "tensorShape": {"dim": [{"size": "1"}]}}}, "dtype": {"type": "DT_INT32"}}}, {"name": "StatefulPartitionedCall/efficient_sam/StatefulPartitionedCall/image_encoder/blocks.11/mlp/fc2/Tensordot/axes", "op": "Const", "input": ["^args_0"], "attr": {"value": {"tensor": {"dtype": "DT_INT32", "tensorShape": {"dim": [{"size": "1"}]}}}, "dtype": {"type": "DT_INT32"}}}, {"name": "StatefulPartitionedCall/efficient_sam/StatefulPartitionedCall/image_encoder/blocks.11/mlp/fc2/Tensordot/GatherV2_1/axis", "op": "Const", "input": ["^args_0"], "attr": {"dtype": {"type": "DT_INT32"}, "value": {"tensor": {"dtype": "DT_INT32", "tensorShape": {}}}}}, {"name": "StatefulPartitionedCall/efficient_sam/StatefulPartitionedCall/image_encoder/blocks.11/mlp/fc2/Tensordot/Const_1", "op": "Const", "input": ["^args_0"], "attr": {"dtype": {"type": "DT_INT32"}, "value": {"tensor": {"dtype": "DT_INT32", "tensorShape": {"dim": [{"size": "1"}]}}}}}, {"name": "StatefulPartitionedCall/efficient_sam/StatefulPartitionedCall/image_encoder/blocks.11/mlp/fc2/Tensordot/ReadVariableOp", "op": "Const", "input": ["^args_0"], "attr": {"value": {"tensor": {"dtype": "DT_FLOAT", "tensorShape": {"dim": [{"size": "768"}, {"size": "192"}]}}}, "dtype": {"type": "DT_FLOAT"}}}, {"name": "StatefulPartitionedCall/efficient_sam/StatefulPartitionedCall/image_encoder/blocks.11/mlp/Gelu/mul/x", "op": "Const", "input": ["^args_0"], "attr": {"value": {"tensor": {"dtype": "DT_FLOAT", "tensorShape": {}}}, "dtype": {"type": "DT_FLOAT"}}}, {"name": "StatefulPartitionedCall/efficient_sam/StatefulPartitionedCall/image_encoder/blocks.11/mlp/Gelu/add/x", "op": "Const", "input": ["^args_0"], "attr": {"value": {"tensor": {"dtype": "DT_FLOAT", "tensorShape": {}}}, "dtype": {"type": "DT_FLOAT"}}}, {"name": "StatefulPartitionedCall/efficient_sam/StatefulPartitionedCall/image_encoder/blocks.11/mlp/fc1/Tensordot/Const", "op": "Const", "input": ["^args_0"], "attr": {"value": {"tensor": {"dtype": "DT_INT32", "tensorShape": {"dim": [{"size": "1"}]}}}, "dtype": {"type": "DT_INT32"}}}, {"name": "StatefulPartitionedCall/efficient_sam/StatefulPartitionedCall/image_encoder/blocks.11/mlp/fc1/Tensordot/axes", "op": "Const", "input": ["^args_0"], "attr": {"dtype": {"type": "DT_INT32"}, "value": {"tensor": {"dtype": "DT_INT32", "tensorShape": {"dim": [{"size": "1"}]}}}}}, {"name": "StatefulPartitionedCall/efficient_sam/StatefulPartitionedCall/image_encoder/blocks.11/mlp/fc1/Tensordot/GatherV2_1/axis", "op": "Const", "input": ["^args_0"], "attr": {"dtype": {"type": "DT_INT32"}, "value": {"tensor": {"dtype": "DT_INT32", "tensorShape": {}}}}}, {"name": "StatefulPartitionedCall/efficient_sam/StatefulPartitionedCall/image_encoder/blocks.11/mlp/fc1/Tensordot/Const_1", "op": "Const", "input": ["^args_0"], "attr": {"value": {"tensor": {"dtype": "DT_INT32", "tensorShape": {"dim": [{"size": "1"}]}}}, "dtype": {"type": "DT_INT32"}}}, {"name": "StatefulPartitionedCall/efficient_sam/StatefulPartitionedCall/image_encoder/blocks.11/mlp/fc1/Tensordot/ReadVariableOp", "op": "Const", "input": ["^args_0"], "attr": {"value": {"tensor": {"dtype": "DT_FLOAT", "tensorShape": {"dim": [{"size": "192"}, {"size": "768"}]}}}, "dtype": {"type": "DT_FLOAT"}}}, {"name": "StatefulPartitionedCall/efficient_sam/StatefulPartitionedCall/image_encoder/blocks.11/layer_norm2/batchnorm/ReadVariableOp", "op": "Const", "input": ["^args_0"], "attr": {"value": {"tensor": {"dtype": "DT_FLOAT", "tensorShape": {"dim": [{"size": "192"}]}}}, "dtype": {"type": "DT_FLOAT"}}}, {"name": "StatefulPartitionedCall/efficient_sam/StatefulPartitionedCall/image_encoder/blocks.11/attn/proj/Tensordot/Const", "op": "Const", "input": ["^args_0"], "attr": {"dtype": {"type": "DT_INT32"}, "value": {"tensor": {"dtype": "DT_INT32", "tensorShape": {"dim": [{"size": "1"}]}}}}}, {"name": "StatefulPartitionedCall/efficient_sam/StatefulPartitionedCall/image_encoder/blocks.11/attn/proj/Tensordot/axes", "op": "Const", "input": ["^args_0"], "attr": {"dtype": {"type": "DT_INT32"}, "value": {"tensor": {"dtype": "DT_INT32", "tensorShape": {"dim": [{"size": "1"}]}}}}}, {"name": "StatefulPartitionedCall/efficient_sam/StatefulPartitionedCall/image_encoder/blocks.11/attn/proj/Tensordot/GatherV2_1/axis", "op": "Const", "input": ["^args_0"], "attr": {"value": {"tensor": {"dtype": "DT_INT32", "tensorShape": {}}}, "dtype": {"type": "DT_INT32"}}}, {"name": "StatefulPartitionedCall/efficient_sam/StatefulPartitionedCall/image_encoder/blocks.11/attn/proj/Tensordot/Const_1", "op": "Const", "input": ["^args_0"], "attr": {"value": {"tensor": {"dtype": "DT_INT32", "tensorShape": {"dim": [{"size": "1"}]}}}, "dtype": {"type": "DT_INT32"}}}, {"name": "StatefulPartitionedCall/efficient_sam/StatefulPartitionedCall/image_encoder/blocks.11/attn/proj/Tensordot/ReadVariableOp", "op": "Const", "input": ["^args_0"], "attr": {"dtype": {"type": "DT_FLOAT"}, "value": {"tensor": {"dtype": "DT_FLOAT", "tensorShape": {"dim": [{"size": "192"}, {"size": "192"}]}}}}}, {"name": "StatefulPartitionedCall/efficient_sam/StatefulPartitionedCall/image_encoder/blocks.11/attn/mul/y", "op": "Const", "input": ["^args_0"], "attr": {"value": {"tensor": {"dtype": "DT_FLOAT", "tensorShape": {}}}, "dtype": {"type": "DT_FLOAT"}}}, {"name": "StatefulPartitionedCall/efficient_sam/StatefulPartitionedCall/image_encoder/blocks.11/attn/qkv/Tensordot/Const", "op": "Const", "input": ["^args_0"], "attr": {"dtype": {"type": "DT_INT32"}, "value": {"tensor": {"dtype": "DT_INT32", "tensorShape": {"dim": [{"size": "1"}]}}}}}, {"name": "StatefulPartitionedCall/efficient_sam/StatefulPartitionedCall/image_encoder/blocks.11/attn/qkv/Tensordot/axes", "op": "Const", "input": ["^args_0"], "attr": {"value": {"tensor": {"dtype": "DT_INT32", "tensorShape": {"dim": [{"size": "1"}]}}}, "dtype": {"type": "DT_INT32"}}}, {"name": "StatefulPartitionedCall/efficient_sam/StatefulPartitionedCall/image_encoder/blocks.11/attn/qkv/Tensordot/GatherV2_1/axis", "op": "Const", "input": ["^args_0"], "attr": {"dtype": {"type": "DT_INT32"}, "value": {"tensor": {"dtype": "DT_INT32", "tensorShape": {}}}}}, {"name": "StatefulPartitionedCall/efficient_sam/StatefulPartitionedCall/image_encoder/blocks.11/attn/qkv/Tensordot/Const_1", "op": "Const", "input": ["^args_0"], "attr": {"dtype": {"type": "DT_INT32"}, "value": {"tensor": {"dtype": "DT_INT32", "tensorShape": {"dim": [{"size": "1"}]}}}}}, {"name": "StatefulPartitionedCall/efficient_sam/StatefulPartitionedCall/image_encoder/blocks.11/attn/qkv/Tensordot/ReadVariableOp", "op": "Const", "input": ["^args_0"], "attr": {"value": {"tensor": {"dtype": "DT_FLOAT", "tensorShape": {"dim": [{"size": "192"}, {"size": "576"}]}}}, "dtype": {"type": "DT_FLOAT"}}}, {"name": "StatefulPartitionedCall/efficient_sam/StatefulPartitionedCall/image_encoder/blocks.11/attn/qkv/Tensordot/free", "op": "Const", "input": ["^args_0"], "attr": {"dtype": {"type": "DT_INT32"}, "value": {"tensor": {"dtype": "DT_INT32", "tensorShape": {"dim": [{"size": "2"}]}}}}}, {"name": "StatefulPartitionedCall/efficient_sam/StatefulPartitionedCall/image_encoder/blocks.11/attn/qkv/Tensordot/GatherV2/axis", "op": "Const", "input": ["^args_0"], "attr": {"value": {"tensor": {"dtype": "DT_INT32", "tensorShape": {}}}, "dtype": {"type": "DT_INT32"}}}, {"name": "StatefulPartitionedCall/efficient_sam/StatefulPartitionedCall/image_encoder/blocks.11/attn/qkv/Tensordot/Const_2", "op": "Const", "input": ["^args_0"], "attr": {"value": {"tensor": {"dtype": "DT_INT32", "tensorShape": {"dim": [{"size": "1"}]}}}, "dtype": {"type": "DT_INT32"}}}, {"name": "StatefulPartitionedCall/efficient_sam/StatefulPartitionedCall/image_encoder/blocks.11/attn/qkv/Tensordot/concat_1/axis", "op": "Const", "input": ["^args_0"], "attr": {"dtype": {"type": "DT_INT32"}, "value": {"tensor": {"dtype": "DT_INT32", "tensorShape": {}}}}}, {"name": "StatefulPartitionedCall/efficient_sam/StatefulPartitionedCall/image_encoder/blocks.11/attn/qkv/BiasAdd/ReadVariableOp", "op": "Const", "input": ["^args_0"], "attr": {"value": {"tensor": {"dtype": "DT_FLOAT", "tensorShape": {"dim": [{"size": "576"}]}}}, "dtype": {"type": "DT_FLOAT"}}}, {"name": "StatefulPartitionedCall/efficient_sam/StatefulPartitionedCall/image_encoder/blocks.11/attn/Reshape/shape/1", "op": "Const", "input": ["^args_0"], "attr": {"dtype": {"type": "DT_INT32"}, "value": {"tensor": {"dtype": "DT_INT32", "tensorShape": {}}}}}, {"name": "StatefulPartitionedCall/efficient_sam/StatefulPartitionedCall/image_encoder/blocks.11/attn/Reshape/shape/2", "op": "Const", "input": ["^args_0"], "attr": {"dtype": {"type": "DT_INT32"}, "value": {"tensor": {"dtype": "DT_INT32", "tensorShape": {}}}}}, {"name": "StatefulPartitionedCall/efficient_sam/StatefulPartitionedCall/image_encoder/blocks.11/attn/Reshape/shape/3", "op": "Const", "input": ["^args_0"], "attr": {"value": {"tensor": {"dtype": "DT_INT32", "tensorShape": {}}}, "dtype": {"type": "DT_INT32"}}}, {"name": "StatefulPartitionedCall/efficient_sam/StatefulPartitionedCall/image_encoder/blocks.11/attn/Reshape/shape/4", "op": "Const", "input": ["^args_0"], "attr": {"value": {"tensor": {"dtype": "DT_INT32", "tensorShape": {}}}, "dtype": {"type": "DT_INT32"}}}, {"name": "StatefulPartitionedCall/efficient_sam/StatefulPartitionedCall/image_encoder/blocks.11/attn/transpose/perm", "op": "Const", "input": ["^args_0"], "attr": {"value": {"tensor": {"dtype": "DT_INT32", "tensorShape": {"dim": [{"size": "5"}]}}}, "dtype": {"type": "DT_INT32"}}}, {"name": "StatefulPartitionedCall/efficient_sam/StatefulPartitionedCall/image_encoder/blocks.11/attn/transpose_2/perm", "op": "Const", "input": ["^args_0"], "attr": {"value": {"tensor": {"dtype": "DT_INT32", "tensorShape": {"dim": [{"size": "4"}]}}}, "dtype": {"type": "DT_INT32"}}}, {"name": "StatefulPartitionedCall/efficient_sam/StatefulPartitionedCall/image_encoder/blocks.11/layer_norm1/batchnorm/ReadVariableOp", "op": "Const", "input": ["^args_0"], "attr": {"value": {"tensor": {"dtype": "DT_FLOAT", "tensorShape": {"dim": [{"size": "192"}]}}}, "dtype": {"type": "DT_FLOAT"}}}, {"name": "StatefulPartitionedCall/efficient_sam/StatefulPartitionedCall/image_encoder/blocks.10/mlp/fc2/Tensordot/Const", "op": "Const", "input": ["^args_0"], "attr": {"dtype": {"type": "DT_INT32"}, "value": {"tensor": {"dtype": "DT_INT32", "tensorShape": {"dim": [{"size": "1"}]}}}}}, {"name": "StatefulPartitionedCall/efficient_sam/StatefulPartitionedCall/image_encoder/blocks.10/mlp/fc2/Tensordot/axes", "op": "Const", "input": ["^args_0"], "attr": {"value": {"tensor": {"dtype": "DT_INT32", "tensorShape": {"dim": [{"size": "1"}]}}}, "dtype": {"type": "DT_INT32"}}}, {"name": "StatefulPartitionedCall/efficient_sam/StatefulPartitionedCall/image_encoder/blocks.10/mlp/fc2/Tensordot/GatherV2_1/axis", "op": "Const", "input": ["^args_0"], "attr": {"value": {"tensor": {"dtype": "DT_INT32", "tensorShape": {}}}, "dtype": {"type": "DT_INT32"}}}, {"name": "StatefulPartitionedCall/efficient_sam/StatefulPartitionedCall/image_encoder/blocks.10/mlp/fc2/Tensordot/Const_1", "op": "Const", "input": ["^args_0"], "attr": {"value": {"tensor": {"dtype": "DT_INT32", "tensorShape": {"dim": [{"size": "1"}]}}}, "dtype": {"type": "DT_INT32"}}}, {"name": "StatefulPartitionedCall/efficient_sam/StatefulPartitionedCall/image_encoder/blocks.10/mlp/fc2/Tensordot/ReadVariableOp", "op": "Const", "input": ["^args_0"], "attr": {"dtype": {"type": "DT_FLOAT"}, "value": {"tensor": {"dtype": "DT_FLOAT", "tensorShape": {"dim": [{"size": "768"}, {"size": "192"}]}}}}}, {"name": "StatefulPartitionedCall/efficient_sam/StatefulPartitionedCall/image_encoder/blocks.10/mlp/Gelu/mul/x", "op": "Const", "input": ["^args_0"], "attr": {"value": {"tensor": {"dtype": "DT_FLOAT", "tensorShape": {}}}, "dtype": {"type": "DT_FLOAT"}}}, {"name": "StatefulPartitionedCall/efficient_sam/StatefulPartitionedCall/image_encoder/blocks.10/mlp/Gelu/add/x", "op": "Const", "input": ["^args_0"], "attr": {"value": {"tensor": {"dtype": "DT_FLOAT", "tensorShape": {}}}, "dtype": {"type": "DT_FLOAT"}}}, {"name": "StatefulPartitionedCall/efficient_sam/StatefulPartitionedCall/image_encoder/blocks.10/mlp/fc1/Tensordot/Const", "op": "Const", "input": ["^args_0"], "attr": {"dtype": {"type": "DT_INT32"}, "value": {"tensor": {"dtype": "DT_INT32", "tensorShape": {"dim": [{"size": "1"}]}}}}}, {"name": "StatefulPartitionedCall/efficient_sam/StatefulPartitionedCall/image_encoder/blocks.10/mlp/fc1/Tensordot/axes", "op": "Const", "input": ["^args_0"], "attr": {"value": {"tensor": {"dtype": "DT_INT32", "tensorShape": {"dim": [{"size": "1"}]}}}, "dtype": {"type": "DT_INT32"}}}, {"name": "StatefulPartitionedCall/efficient_sam/StatefulPartitionedCall/image_encoder/blocks.10/mlp/fc1/Tensordot/GatherV2_1/axis", "op": "Const", "input": ["^args_0"], "attr": {"dtype": {"type": "DT_INT32"}, "value": {"tensor": {"dtype": "DT_INT32", "tensorShape": {}}}}}, {"name": "StatefulPartitionedCall/efficient_sam/StatefulPartitionedCall/image_encoder/blocks.10/mlp/fc1/Tensordot/Const_1", "op": "Const", "input": ["^args_0"], "attr": {"value": {"tensor": {"dtype": "DT_INT32", "tensorShape": {"dim": [{"size": "1"}]}}}, "dtype": {"type": "DT_INT32"}}}, {"name": "StatefulPartitionedCall/efficient_sam/StatefulPartitionedCall/image_encoder/blocks.10/mlp/fc1/Tensordot/ReadVariableOp", "op": "Const", "input": ["^args_0"], "attr": {"value": {"tensor": {"dtype": "DT_FLOAT", "tensorShape": {"dim": [{"size": "192"}, {"size": "768"}]}}}, "dtype": {"type": "DT_FLOAT"}}}, {"name": "StatefulPartitionedCall/efficient_sam/StatefulPartitionedCall/image_encoder/blocks.10/layer_norm2/batchnorm/ReadVariableOp", "op": "Const", "input": ["^args_0"], "attr": {"value": {"tensor": {"dtype": "DT_FLOAT", "tensorShape": {"dim": [{"size": "192"}]}}}, "dtype": {"type": "DT_FLOAT"}}}, {"name": "StatefulPartitionedCall/efficient_sam/StatefulPartitionedCall/image_encoder/blocks.10/attn/proj/Tensordot/Const", "op": "Const", "input": ["^args_0"], "attr": {"dtype": {"type": "DT_INT32"}, "value": {"tensor": {"dtype": "DT_INT32", "tensorShape": {"dim": [{"size": "1"}]}}}}}, {"name": "StatefulPartitionedCall/efficient_sam/StatefulPartitionedCall/image_encoder/blocks.10/attn/proj/Tensordot/axes", "op": "Const", "input": ["^args_0"], "attr": {"value": {"tensor": {"dtype": "DT_INT32", "tensorShape": {"dim": [{"size": "1"}]}}}, "dtype": {"type": "DT_INT32"}}}, {"name": "StatefulPartitionedCall/efficient_sam/StatefulPartitionedCall/image_encoder/blocks.10/attn/proj/Tensordot/GatherV2_1/axis", "op": "Const", "input": ["^args_0"], "attr": {"value": {"tensor": {"dtype": "DT_INT32", "tensorShape": {}}}, "dtype": {"type": "DT_INT32"}}}, {"name": "StatefulPartitionedCall/efficient_sam/StatefulPartitionedCall/image_encoder/blocks.10/attn/proj/Tensordot/Const_1", "op": "Const", "input": ["^args_0"], "attr": {"value": {"tensor": {"dtype": "DT_INT32", "tensorShape": {"dim": [{"size": "1"}]}}}, "dtype": {"type": "DT_INT32"}}}, {"name": "StatefulPartitionedCall/efficient_sam/StatefulPartitionedCall/image_encoder/blocks.10/attn/proj/Tensordot/ReadVariableOp", "op": "Const", "input": ["^args_0"], "attr": {"value": {"tensor": {"dtype": "DT_FLOAT", "tensorShape": {"dim": [{"size": "192"}, {"size": "192"}]}}}, "dtype": {"type": "DT_FLOAT"}}}, {"name": "StatefulPartitionedCall/efficient_sam/StatefulPartitionedCall/image_encoder/blocks.10/attn/mul/y", "op": "Const", "input": ["^args_0"], "attr": {"value": {"tensor": {"dtype": "DT_FLOAT", "tensorShape": {}}}, "dtype": {"type": "DT_FLOAT"}}}, {"name": "StatefulPartitionedCall/efficient_sam/StatefulPartitionedCall/image_encoder/blocks.10/attn/qkv/Tensordot/Const", "op": "Const", "input": ["^args_0"], "attr": {"value": {"tensor": {"dtype": "DT_INT32", "tensorShape": {"dim": [{"size": "1"}]}}}, "dtype": {"type": "DT_INT32"}}}, {"name": "StatefulPartitionedCall/efficient_sam/StatefulPartitionedCall/image_encoder/blocks.10/attn/qkv/Tensordot/axes", "op": "Const", "input": ["^args_0"], "attr": {"value": {"tensor": {"dtype": "DT_INT32", "tensorShape": {"dim": [{"size": "1"}]}}}, "dtype": {"type": "DT_INT32"}}}, {"name": "StatefulPartitionedCall/efficient_sam/StatefulPartitionedCall/image_encoder/blocks.10/attn/qkv/Tensordot/GatherV2_1/axis", "op": "Const", "input": ["^args_0"], "attr": {"value": {"tensor": {"dtype": "DT_INT32", "tensorShape": {}}}, "dtype": {"type": "DT_INT32"}}}, {"name": "StatefulPartitionedCall/efficient_sam/StatefulPartitionedCall/image_encoder/blocks.10/attn/qkv/Tensordot/Const_1", "op": "Const", "input": ["^args_0"], "attr": {"dtype": {"type": "DT_INT32"}, "value": {"tensor": {"dtype": "DT_INT32", "tensorShape": {"dim": [{"size": "1"}]}}}}}, {"name": "StatefulPartitionedCall/efficient_sam/StatefulPartitionedCall/image_encoder/blocks.10/attn/qkv/Tensordot/ReadVariableOp", "op": "Const", "input": ["^args_0"], "attr": {"dtype": {"type": "DT_FLOAT"}, "value": {"tensor": {"dtype": "DT_FLOAT", "tensorShape": {"dim": [{"size": "192"}, {"size": "576"}]}}}}}, {"name": "StatefulPartitionedCall/efficient_sam/StatefulPartitionedCall/image_encoder/blocks.10/attn/qkv/Tensordot/free", "op": "Const", "input": ["^args_0"], "attr": {"value": {"tensor": {"dtype": "DT_INT32", "tensorShape": {"dim": [{"size": "2"}]}}}, "dtype": {"type": "DT_INT32"}}}, {"name": "StatefulPartitionedCall/efficient_sam/StatefulPartitionedCall/image_encoder/blocks.10/attn/qkv/Tensordot/GatherV2/axis", "op": "Const", "input": ["^args_0"], "attr": {"dtype": {"type": "DT_INT32"}, "value": {"tensor": {"dtype": "DT_INT32", "tensorShape": {}}}}}, {"name": "StatefulPartitionedCall/efficient_sam/StatefulPartitionedCall/image_encoder/blocks.10/attn/qkv/Tensordot/Const_2", "op": "Const", "input": ["^args_0"], "attr": {"value": {"tensor": {"dtype": "DT_INT32", "tensorShape": {"dim": [{"size": "1"}]}}}, "dtype": {"type": "DT_INT32"}}}, {"name": "StatefulPartitionedCall/efficient_sam/StatefulPartitionedCall/image_encoder/blocks.10/attn/qkv/Tensordot/concat_1/axis", "op": "Const", "input": ["^args_0"], "attr": {"value": {"tensor": {"dtype": "DT_INT32", "tensorShape": {}}}, "dtype": {"type": "DT_INT32"}}}, {"name": "StatefulPartitionedCall/efficient_sam/StatefulPartitionedCall/image_encoder/blocks.10/attn/qkv/BiasAdd/ReadVariableOp", "op": "Const", "input": ["^args_0"], "attr": {"value": {"tensor": {"dtype": "DT_FLOAT", "tensorShape": {"dim": [{"size": "576"}]}}}, "dtype": {"type": "DT_FLOAT"}}}, {"name": "StatefulPartitionedCall/efficient_sam/StatefulPartitionedCall/image_encoder/blocks.10/attn/Reshape/shape/1", "op": "Const", "input": ["^args_0"], "attr": {"dtype": {"type": "DT_INT32"}, "value": {"tensor": {"dtype": "DT_INT32", "tensorShape": {}}}}}, {"name": "StatefulPartitionedCall/efficient_sam/StatefulPartitionedCall/image_encoder/blocks.10/attn/Reshape/shape/2", "op": "Const", "input": ["^args_0"], "attr": {"value": {"tensor": {"dtype": "DT_INT32", "tensorShape": {}}}, "dtype": {"type": "DT_INT32"}}}, {"name": "StatefulPartitionedCall/efficient_sam/StatefulPartitionedCall/image_encoder/blocks.10/attn/Reshape/shape/3", "op": "Const", "input": ["^args_0"], "attr": {"value": {"tensor": {"dtype": "DT_INT32", "tensorShape": {}}}, "dtype": {"type": "DT_INT32"}}}, {"name": "StatefulPartitionedCall/efficient_sam/StatefulPartitionedCall/image_encoder/blocks.10/attn/Reshape/shape/4", "op": "Const", "input": ["^args_0"], "attr": {"value": {"tensor": {"dtype": "DT_INT32", "tensorShape": {}}}, "dtype": {"type": "DT_INT32"}}}, {"name": "StatefulPartitionedCall/efficient_sam/StatefulPartitionedCall/image_encoder/blocks.10/attn/transpose/perm", "op": "Const", "input": ["^args_0"], "attr": {"dtype": {"type": "DT_INT32"}, "value": {"tensor": {"dtype": "DT_INT32", "tensorShape": {"dim": [{"size": "5"}]}}}}}, {"name": "StatefulPartitionedCall/efficient_sam/StatefulPartitionedCall/image_encoder/blocks.10/attn/transpose_2/perm", "op": "Const", "input": ["^args_0"], "attr": {"dtype": {"type": "DT_INT32"}, "value": {"tensor": {"dtype": "DT_INT32", "tensorShape": {"dim": [{"size": "4"}]}}}}}, {"name": "StatefulPartitionedCall/efficient_sam/StatefulPartitionedCall/image_encoder/blocks.10/layer_norm1/batchnorm/ReadVariableOp", "op": "Const", "input": ["^args_0"], "attr": {"value": {"tensor": {"dtype": "DT_FLOAT", "tensorShape": {"dim": [{"size": "192"}]}}}, "dtype": {"type": "DT_FLOAT"}}}, {"name": "StatefulPartitionedCall/efficient_sam/StatefulPartitionedCall/image_encoder/blocks.9/mlp/fc2/Tensordot/Const", "op": "Const", "input": ["^args_0"], "attr": {"dtype": {"type": "DT_INT32"}, "value": {"tensor": {"dtype": "DT_INT32", "tensorShape": {"dim": [{"size": "1"}]}}}}}, {"name": "StatefulPartitionedCall/efficient_sam/StatefulPartitionedCall/image_encoder/blocks.9/mlp/fc2/Tensordot/axes", "op": "Const", "input": ["^args_0"], "attr": {"dtype": {"type": "DT_INT32"}, "value": {"tensor": {"dtype": "DT_INT32", "tensorShape": {"dim": [{"size": "1"}]}}}}}, {"name": "StatefulPartitionedCall/efficient_sam/StatefulPartitionedCall/image_encoder/blocks.9/mlp/fc2/Tensordot/GatherV2_1/axis", "op": "Const", "input": ["^args_0"], "attr": {"value": {"tensor": {"dtype": "DT_INT32", "tensorShape": {}}}, "dtype": {"type": "DT_INT32"}}}, {"name": "StatefulPartitionedCall/efficient_sam/StatefulPartitionedCall/image_encoder/blocks.9/mlp/fc2/Tensordot/Const_1", "op": "Const", "input": ["^args_0"], "attr": {"dtype": {"type": "DT_INT32"}, "value": {"tensor": {"dtype": "DT_INT32", "tensorShape": {"dim": [{"size": "1"}]}}}}}, {"name": "StatefulPartitionedCall/efficient_sam/StatefulPartitionedCall/image_encoder/blocks.9/mlp/fc2/Tensordot/ReadVariableOp", "op": "Const", "input": ["^args_0"], "attr": {"dtype": {"type": "DT_FLOAT"}, "value": {"tensor": {"dtype": "DT_FLOAT", "tensorShape": {"dim": [{"size": "768"}, {"size": "192"}]}}}}}, {"name": "StatefulPartitionedCall/efficient_sam/StatefulPartitionedCall/image_encoder/blocks.9/mlp/Gelu/mul/x", "op": "Const", "input": ["^args_0"], "attr": {"value": {"tensor": {"dtype": "DT_FLOAT", "tensorShape": {}}}, "dtype": {"type": "DT_FLOAT"}}}, {"name": "StatefulPartitionedCall/efficient_sam/StatefulPartitionedCall/image_encoder/blocks.9/mlp/Gelu/add/x", "op": "Const", "input": ["^args_0"], "attr": {"value": {"tensor": {"dtype": "DT_FLOAT", "tensorShape": {}}}, "dtype": {"type": "DT_FLOAT"}}}, {"name": "StatefulPartitionedCall/efficient_sam/StatefulPartitionedCall/image_encoder/blocks.9/mlp/fc1/Tensordot/Const", "op": "Const", "input": ["^args_0"], "attr": {"value": {"tensor": {"dtype": "DT_INT32", "tensorShape": {"dim": [{"size": "1"}]}}}, "dtype": {"type": "DT_INT32"}}}, {"name": "StatefulPartitionedCall/efficient_sam/StatefulPartitionedCall/image_encoder/blocks.9/mlp/fc1/Tensordot/axes", "op": "Const", "input": ["^args_0"], "attr": {"dtype": {"type": "DT_INT32"}, "value": {"tensor": {"dtype": "DT_INT32", "tensorShape": {"dim": [{"size": "1"}]}}}}}, {"name": "StatefulPartitionedCall/efficient_sam/StatefulPartitionedCall/image_encoder/blocks.9/mlp/fc1/Tensordot/GatherV2_1/axis", "op": "Const", "input": ["^args_0"], "attr": {"value": {"tensor": {"dtype": "DT_INT32", "tensorShape": {}}}, "dtype": {"type": "DT_INT32"}}}, {"name": "StatefulPartitionedCall/efficient_sam/StatefulPartitionedCall/image_encoder/blocks.9/mlp/fc1/Tensordot/Const_1", "op": "Const", "input": ["^args_0"], "attr": {"value": {"tensor": {"dtype": "DT_INT32", "tensorShape": {"dim": [{"size": "1"}]}}}, "dtype": {"type": "DT_INT32"}}}, {"name": "StatefulPartitionedCall/efficient_sam/StatefulPartitionedCall/image_encoder/blocks.9/mlp/fc1/Tensordot/ReadVariableOp", "op": "Const", "input": ["^args_0"], "attr": {"value": {"tensor": {"dtype": "DT_FLOAT", "tensorShape": {"dim": [{"size": "192"}, {"size": "768"}]}}}, "dtype": {"type": "DT_FLOAT"}}}, {"name": "StatefulPartitionedCall/efficient_sam/StatefulPartitionedCall/image_encoder/blocks.9/layer_norm2/batchnorm/ReadVariableOp", "op": "Const", "input": ["^args_0"], "attr": {"value": {"tensor": {"dtype": "DT_FLOAT", "tensorShape": {"dim": [{"size": "192"}]}}}, "dtype": {"type": "DT_FLOAT"}}}, {"name": "StatefulPartitionedCall/efficient_sam/StatefulPartitionedCall/image_encoder/blocks.9/attn/proj/Tensordot/Const", "op": "Const", "input": ["^args_0"], "attr": {"dtype": {"type": "DT_INT32"}, "value": {"tensor": {"dtype": "DT_INT32", "tensorShape": {"dim": [{"size": "1"}]}}}}}, {"name": "StatefulPartitionedCall/efficient_sam/StatefulPartitionedCall/image_encoder/blocks.9/attn/proj/Tensordot/axes", "op": "Const", "input": ["^args_0"], "attr": {"value": {"tensor": {"dtype": "DT_INT32", "tensorShape": {"dim": [{"size": "1"}]}}}, "dtype": {"type": "DT_INT32"}}}, {"name": "StatefulPartitionedCall/efficient_sam/StatefulPartitionedCall/image_encoder/blocks.9/attn/proj/Tensordot/GatherV2_1/axis", "op": "Const", "input": ["^args_0"], "attr": {"dtype": {"type": "DT_INT32"}, "value": {"tensor": {"dtype": "DT_INT32", "tensorShape": {}}}}}, {"name": "StatefulPartitionedCall/efficient_sam/StatefulPartitionedCall/image_encoder/blocks.9/attn/proj/Tensordot/Const_1", "op": "Const", "input": ["^args_0"], "attr": {"value": {"tensor": {"dtype": "DT_INT32", "tensorShape": {"dim": [{"size": "1"}]}}}, "dtype": {"type": "DT_INT32"}}}, {"name": "StatefulPartitionedCall/efficient_sam/StatefulPartitionedCall/image_encoder/blocks.9/attn/proj/Tensordot/ReadVariableOp", "op": "Const", "input": ["^args_0"], "attr": {"dtype": {"type": "DT_FLOAT"}, "value": {"tensor": {"dtype": "DT_FLOAT", "tensorShape": {"dim": [{"size": "192"}, {"size": "192"}]}}}}}, {"name": "StatefulPartitionedCall/efficient_sam/StatefulPartitionedCall/image_encoder/blocks.9/attn/mul/y", "op": "Const", "input": ["^args_0"], "attr": {"dtype": {"type": "DT_FLOAT"}, "value": {"tensor": {"dtype": "DT_FLOAT", "tensorShape": {}}}}}, {"name": "StatefulPartitionedCall/efficient_sam/StatefulPartitionedCall/image_encoder/blocks.9/attn/qkv/Tensordot/Const", "op": "Const", "input": ["^args_0"], "attr": {"value": {"tensor": {"dtype": "DT_INT32", "tensorShape": {"dim": [{"size": "1"}]}}}, "dtype": {"type": "DT_INT32"}}}, {"name": "StatefulPartitionedCall/efficient_sam/StatefulPartitionedCall/image_encoder/blocks.9/attn/qkv/Tensordot/axes", "op": "Const", "input": ["^args_0"], "attr": {"value": {"tensor": {"dtype": "DT_INT32", "tensorShape": {"dim": [{"size": "1"}]}}}, "dtype": {"type": "DT_INT32"}}}, {"name": "StatefulPartitionedCall/efficient_sam/StatefulPartitionedCall/image_encoder/blocks.9/attn/qkv/Tensordot/GatherV2_1/axis", "op": "Const", "input": ["^args_0"], "attr": {"value": {"tensor": {"dtype": "DT_INT32", "tensorShape": {}}}, "dtype": {"type": "DT_INT32"}}}, {"name": "StatefulPartitionedCall/efficient_sam/StatefulPartitionedCall/image_encoder/blocks.9/attn/qkv/Tensordot/Const_1", "op": "Const", "input": ["^args_0"], "attr": {"value": {"tensor": {"dtype": "DT_INT32", "tensorShape": {"dim": [{"size": "1"}]}}}, "dtype": {"type": "DT_INT32"}}}, {"name": "StatefulPartitionedCall/efficient_sam/StatefulPartitionedCall/image_encoder/blocks.9/attn/qkv/Tensordot/ReadVariableOp", "op": "Const", "input": ["^args_0"], "attr": {"value": {"tensor": {"dtype": "DT_FLOAT", "tensorShape": {"dim": [{"size": "192"}, {"size": "576"}]}}}, "dtype": {"type": "DT_FLOAT"}}}, {"name": "StatefulPartitionedCall/efficient_sam/StatefulPartitionedCall/image_encoder/blocks.9/attn/qkv/Tensordot/free", "op": "Const", "input": ["^args_0"], "attr": {"value": {"tensor": {"dtype": "DT_INT32", "tensorShape": {"dim": [{"size": "2"}]}}}, "dtype": {"type": "DT_INT32"}}}, {"name": "StatefulPartitionedCall/efficient_sam/StatefulPartitionedCall/image_encoder/blocks.9/attn/qkv/Tensordot/GatherV2/axis", "op": "Const", "input": ["^args_0"], "attr": {"value": {"tensor": {"dtype": "DT_INT32", "tensorShape": {}}}, "dtype": {"type": "DT_INT32"}}}, {"name": "StatefulPartitionedCall/efficient_sam/StatefulPartitionedCall/image_encoder/blocks.9/attn/qkv/Tensordot/Const_2", "op": "Const", "input": ["^args_0"], "attr": {"dtype": {"type": "DT_INT32"}, "value": {"tensor": {"dtype": "DT_INT32", "tensorShape": {"dim": [{"size": "1"}]}}}}}, {"name": "StatefulPartitionedCall/efficient_sam/StatefulPartitionedCall/image_encoder/blocks.9/attn/qkv/Tensordot/concat_1/axis", "op": "Const", "input": ["^args_0"], "attr": {"value": {"tensor": {"dtype": "DT_INT32", "tensorShape": {}}}, "dtype": {"type": "DT_INT32"}}}, {"name": "StatefulPartitionedCall/efficient_sam/StatefulPartitionedCall/image_encoder/blocks.9/attn/qkv/BiasAdd/ReadVariableOp", "op": "Const", "input": ["^args_0"], "attr": {"dtype": {"type": "DT_FLOAT"}, "value": {"tensor": {"dtype": "DT_FLOAT", "tensorShape": {"dim": [{"size": "576"}]}}}}}, {"name": "StatefulPartitionedCall/efficient_sam/StatefulPartitionedCall/image_encoder/blocks.9/attn/Reshape/shape/1", "op": "Const", "input": ["^args_0"], "attr": {"value": {"tensor": {"dtype": "DT_INT32", "tensorShape": {}}}, "dtype": {"type": "DT_INT32"}}}, {"name": "StatefulPartitionedCall/efficient_sam/StatefulPartitionedCall/image_encoder/blocks.9/attn/Reshape/shape/2", "op": "Const", "input": ["^args_0"], "attr": {"value": {"tensor": {"dtype": "DT_INT32", "tensorShape": {}}}, "dtype": {"type": "DT_INT32"}}}, {"name": "StatefulPartitionedCall/efficient_sam/StatefulPartitionedCall/image_encoder/blocks.9/attn/Reshape/shape/3", "op": "Const", "input": ["^args_0"], "attr": {"dtype": {"type": "DT_INT32"}, "value": {"tensor": {"dtype": "DT_INT32", "tensorShape": {}}}}}, {"name": "StatefulPartitionedCall/efficient_sam/StatefulPartitionedCall/image_encoder/blocks.9/attn/Reshape/shape/4", "op": "Const", "input": ["^args_0"], "attr": {"dtype": {"type": "DT_INT32"}, "value": {"tensor": {"dtype": "DT_INT32", "tensorShape": {}}}}}, {"name": "StatefulPartitionedCall/efficient_sam/StatefulPartitionedCall/image_encoder/blocks.9/attn/transpose/perm", "op": "Const", "input": ["^args_0"], "attr": {"value": {"tensor": {"dtype": "DT_INT32", "tensorShape": {"dim": [{"size": "5"}]}}}, "dtype": {"type": "DT_INT32"}}}, {"name": "StatefulPartitionedCall/efficient_sam/StatefulPartitionedCall/image_encoder/blocks.9/attn/transpose_2/perm", "op": "Const", "input": ["^args_0"], "attr": {"value": {"tensor": {"dtype": "DT_INT32", "tensorShape": {"dim": [{"size": "4"}]}}}, "dtype": {"type": "DT_INT32"}}}, {"name": "StatefulPartitionedCall/efficient_sam/StatefulPartitionedCall/image_encoder/blocks.9/layer_norm1/batchnorm/ReadVariableOp", "op": "Const", "input": ["^args_0"], "attr": {"value": {"tensor": {"dtype": "DT_FLOAT", "tensorShape": {"dim": [{"size": "192"}]}}}, "dtype": {"type": "DT_FLOAT"}}}, {"name": "StatefulPartitionedCall/efficient_sam/StatefulPartitionedCall/image_encoder/blocks.8/mlp/fc2/Tensordot/Const", "op": "Const", "input": ["^args_0"], "attr": {"value": {"tensor": {"dtype": "DT_INT32", "tensorShape": {"dim": [{"size": "1"}]}}}, "dtype": {"type": "DT_INT32"}}}, {"name": "StatefulPartitionedCall/efficient_sam/StatefulPartitionedCall/image_encoder/blocks.8/mlp/fc2/Tensordot/axes", "op": "Const", "input": ["^args_0"], "attr": {"value": {"tensor": {"dtype": "DT_INT32", "tensorShape": {"dim": [{"size": "1"}]}}}, "dtype": {"type": "DT_INT32"}}}, {"name": "StatefulPartitionedCall/efficient_sam/StatefulPartitionedCall/image_encoder/blocks.8/mlp/fc2/Tensordot/GatherV2_1/axis", "op": "Const", "input": ["^args_0"], "attr": {"value": {"tensor": {"dtype": "DT_INT32", "tensorShape": {}}}, "dtype": {"type": "DT_INT32"}}}, {"name": "StatefulPartitionedCall/efficient_sam/StatefulPartitionedCall/image_encoder/blocks.8/mlp/fc2/Tensordot/Const_1", "op": "Const", "input": ["^args_0"], "attr": {"dtype": {"type": "DT_INT32"}, "value": {"tensor": {"dtype": "DT_INT32", "tensorShape": {"dim": [{"size": "1"}]}}}}}, {"name": "StatefulPartitionedCall/efficient_sam/StatefulPartitionedCall/image_encoder/blocks.8/mlp/fc2/Tensordot/ReadVariableOp", "op": "Const", "input": ["^args_0"], "attr": {"value": {"tensor": {"dtype": "DT_FLOAT", "tensorShape": {"dim": [{"size": "768"}, {"size": "192"}]}}}, "dtype": {"type": "DT_FLOAT"}}}, {"name": "StatefulPartitionedCall/efficient_sam/StatefulPartitionedCall/image_encoder/blocks.8/mlp/Gelu/mul/x", "op": "Const", "input": ["^args_0"], "attr": {"value": {"tensor": {"dtype": "DT_FLOAT", "tensorShape": {}}}, "dtype": {"type": "DT_FLOAT"}}}, {"name": "StatefulPartitionedCall/efficient_sam/StatefulPartitionedCall/image_encoder/blocks.8/mlp/Gelu/add/x", "op": "Const", "input": ["^args_0"], "attr": {"value": {"tensor": {"dtype": "DT_FLOAT", "tensorShape": {}}}, "dtype": {"type": "DT_FLOAT"}}}, {"name": "StatefulPartitionedCall/efficient_sam/StatefulPartitionedCall/image_encoder/blocks.8/mlp/fc1/Tensordot/Const", "op": "Const", "input": ["^args_0"], "attr": {"value": {"tensor": {"dtype": "DT_INT32", "tensorShape": {"dim": [{"size": "1"}]}}}, "dtype": {"type": "DT_INT32"}}}, {"name": "StatefulPartitionedCall/efficient_sam/StatefulPartitionedCall/image_encoder/blocks.8/mlp/fc1/Tensordot/axes", "op": "Const", "input": ["^args_0"], "attr": {"value": {"tensor": {"dtype": "DT_INT32", "tensorShape": {"dim": [{"size": "1"}]}}}, "dtype": {"type": "DT_INT32"}}}, {"name": "StatefulPartitionedCall/efficient_sam/StatefulPartitionedCall/image_encoder/blocks.8/mlp/fc1/Tensordot/GatherV2_1/axis", "op": "Const", "input": ["^args_0"], "attr": {"value": {"tensor": {"dtype": "DT_INT32", "tensorShape": {}}}, "dtype": {"type": "DT_INT32"}}}, {"name": "StatefulPartitionedCall/efficient_sam/StatefulPartitionedCall/image_encoder/blocks.8/mlp/fc1/Tensordot/Const_1", "op": "Const", "input": ["^args_0"], "attr": {"dtype": {"type": "DT_INT32"}, "value": {"tensor": {"dtype": "DT_INT32", "tensorShape": {"dim": [{"size": "1"}]}}}}}, {"name": "StatefulPartitionedCall/efficient_sam/StatefulPartitionedCall/image_encoder/blocks.8/mlp/fc1/Tensordot/ReadVariableOp", "op": "Const", "input": ["^args_0"], "attr": {"value": {"tensor": {"dtype": "DT_FLOAT", "tensorShape": {"dim": [{"size": "192"}, {"size": "768"}]}}}, "dtype": {"type": "DT_FLOAT"}}}, {"name": "StatefulPartitionedCall/efficient_sam/StatefulPartitionedCall/image_encoder/blocks.8/layer_norm2/batchnorm/ReadVariableOp", "op": "Const", "input": ["^args_0"], "attr": {"dtype": {"type": "DT_FLOAT"}, "value": {"tensor": {"dtype": "DT_FLOAT", "tensorShape": {"dim": [{"size": "192"}]}}}}}, {"name": "StatefulPartitionedCall/efficient_sam/StatefulPartitionedCall/image_encoder/blocks.8/attn/proj/Tensordot/Const", "op": "Const", "input": ["^args_0"], "attr": {"dtype": {"type": "DT_INT32"}, "value": {"tensor": {"dtype": "DT_INT32", "tensorShape": {"dim": [{"size": "1"}]}}}}}, {"name": "StatefulPartitionedCall/efficient_sam/StatefulPartitionedCall/image_encoder/blocks.8/attn/proj/Tensordot/axes", "op": "Const", "input": ["^args_0"], "attr": {"value": {"tensor": {"dtype": "DT_INT32", "tensorShape": {"dim": [{"size": "1"}]}}}, "dtype": {"type": "DT_INT32"}}}, {"name": "StatefulPartitionedCall/efficient_sam/StatefulPartitionedCall/image_encoder/blocks.8/attn/proj/Tensordot/GatherV2_1/axis", "op": "Const", "input": ["^args_0"], "attr": {"dtype": {"type": "DT_INT32"}, "value": {"tensor": {"dtype": "DT_INT32", "tensorShape": {}}}}}, {"name": "StatefulPartitionedCall/efficient_sam/StatefulPartitionedCall/image_encoder/blocks.8/attn/proj/Tensordot/Const_1", "op": "Const", "input": ["^args_0"], "attr": {"value": {"tensor": {"dtype": "DT_INT32", "tensorShape": {"dim": [{"size": "1"}]}}}, "dtype": {"type": "DT_INT32"}}}, {"name": "StatefulPartitionedCall/efficient_sam/StatefulPartitionedCall/image_encoder/blocks.8/attn/proj/Tensordot/ReadVariableOp", "op": "Const", "input": ["^args_0"], "attr": {"value": {"tensor": {"dtype": "DT_FLOAT", "tensorShape": {"dim": [{"size": "192"}, {"size": "192"}]}}}, "dtype": {"type": "DT_FLOAT"}}}, {"name": "StatefulPartitionedCall/efficient_sam/StatefulPartitionedCall/image_encoder/blocks.8/attn/mul/y", "op": "Const", "input": ["^args_0"], "attr": {"value": {"tensor": {"dtype": "DT_FLOAT", "tensorShape": {}}}, "dtype": {"type": "DT_FLOAT"}}}, {"name": "StatefulPartitionedCall/efficient_sam/StatefulPartitionedCall/image_encoder/blocks.8/attn/qkv/Tensordot/Const", "op": "Const", "input": ["^args_0"], "attr": {"dtype": {"type": "DT_INT32"}, "value": {"tensor": {"dtype": "DT_INT32", "tensorShape": {"dim": [{"size": "1"}]}}}}}, {"name": "StatefulPartitionedCall/efficient_sam/StatefulPartitionedCall/image_encoder/blocks.8/attn/qkv/Tensordot/axes", "op": "Const", "input": ["^args_0"], "attr": {"value": {"tensor": {"dtype": "DT_INT32", "tensorShape": {"dim": [{"size": "1"}]}}}, "dtype": {"type": "DT_INT32"}}}, {"name": "StatefulPartitionedCall/efficient_sam/StatefulPartitionedCall/image_encoder/blocks.8/attn/qkv/Tensordot/GatherV2_1/axis", "op": "Const", "input": ["^args_0"], "attr": {"dtype": {"type": "DT_INT32"}, "value": {"tensor": {"dtype": "DT_INT32", "tensorShape": {}}}}}, {"name": "StatefulPartitionedCall/efficient_sam/StatefulPartitionedCall/image_encoder/blocks.8/attn/qkv/Tensordot/Const_1", "op": "Const", "input": ["^args_0"], "attr": {"value": {"tensor": {"dtype": "DT_INT32", "tensorShape": {"dim": [{"size": "1"}]}}}, "dtype": {"type": "DT_INT32"}}}, {"name": "StatefulPartitionedCall/efficient_sam/StatefulPartitionedCall/image_encoder/blocks.8/attn/qkv/Tensordot/ReadVariableOp", "op": "Const", "input": ["^args_0"], "attr": {"value": {"tensor": {"dtype": "DT_FLOAT", "tensorShape": {"dim": [{"size": "192"}, {"size": "576"}]}}}, "dtype": {"type": "DT_FLOAT"}}}, {"name": "StatefulPartitionedCall/efficient_sam/StatefulPartitionedCall/image_encoder/blocks.8/attn/qkv/Tensordot/free", "op": "Const", "input": ["^args_0"], "attr": {"value": {"tensor": {"dtype": "DT_INT32", "tensorShape": {"dim": [{"size": "2"}]}}}, "dtype": {"type": "DT_INT32"}}}, {"name": "StatefulPartitionedCall/efficient_sam/StatefulPartitionedCall/image_encoder/blocks.8/attn/qkv/Tensordot/GatherV2/axis", "op": "Const", "input": ["^args_0"], "attr": {"value": {"tensor": {"dtype": "DT_INT32", "tensorShape": {}}}, "dtype": {"type": "DT_INT32"}}}, {"name": "StatefulPartitionedCall/efficient_sam/StatefulPartitionedCall/image_encoder/blocks.8/attn/qkv/Tensordot/Const_2", "op": "Const", "input": ["^args_0"], "attr": {"value": {"tensor": {"dtype": "DT_INT32", "tensorShape": {"dim": [{"size": "1"}]}}}, "dtype": {"type": "DT_INT32"}}}, {"name": "StatefulPartitionedCall/efficient_sam/StatefulPartitionedCall/image_encoder/blocks.8/attn/qkv/Tensordot/concat_1/axis", "op": "Const", "input": ["^args_0"], "attr": {"value": {"tensor": {"dtype": "DT_INT32", "tensorShape": {}}}, "dtype": {"type": "DT_INT32"}}}, {"name": "StatefulPartitionedCall/efficient_sam/StatefulPartitionedCall/image_encoder/blocks.8/attn/qkv/BiasAdd/ReadVariableOp", "op": "Const", "input": ["^args_0"], "attr": {"value": {"tensor": {"dtype": "DT_FLOAT", "tensorShape": {"dim": [{"size": "576"}]}}}, "dtype": {"type": "DT_FLOAT"}}}, {"name": "StatefulPartitionedCall/efficient_sam/StatefulPartitionedCall/image_encoder/blocks.8/attn/Reshape/shape/1", "op": "Const", "input": ["^args_0"], "attr": {"dtype": {"type": "DT_INT32"}, "value": {"tensor": {"dtype": "DT_INT32", "tensorShape": {}}}}}, {"name": "StatefulPartitionedCall/efficient_sam/StatefulPartitionedCall/image_encoder/blocks.8/attn/Reshape/shape/2", "op": "Const", "input": ["^args_0"], "attr": {"value": {"tensor": {"dtype": "DT_INT32", "tensorShape": {}}}, "dtype": {"type": "DT_INT32"}}}, {"name": "StatefulPartitionedCall/efficient_sam/StatefulPartitionedCall/image_encoder/blocks.8/attn/Reshape/shape/3", "op": "Const", "input": ["^args_0"], "attr": {"dtype": {"type": "DT_INT32"}, "value": {"tensor": {"dtype": "DT_INT32", "tensorShape": {}}}}}, {"name": "StatefulPartitionedCall/efficient_sam/StatefulPartitionedCall/image_encoder/blocks.8/attn/Reshape/shape/4", "op": "Const", "input": ["^args_0"], "attr": {"dtype": {"type": "DT_INT32"}, "value": {"tensor": {"dtype": "DT_INT32", "tensorShape": {}}}}}, {"name": "StatefulPartitionedCall/efficient_sam/StatefulPartitionedCall/image_encoder/blocks.8/attn/transpose/perm", "op": "Const", "input": ["^args_0"], "attr": {"dtype": {"type": "DT_INT32"}, "value": {"tensor": {"dtype": "DT_INT32", "tensorShape": {"dim": [{"size": "5"}]}}}}}, {"name": "StatefulPartitionedCall/efficient_sam/StatefulPartitionedCall/image_encoder/blocks.8/attn/transpose_2/perm", "op": "Const", "input": ["^args_0"], "attr": {"value": {"tensor": {"dtype": "DT_INT32", "tensorShape": {"dim": [{"size": "4"}]}}}, "dtype": {"type": "DT_INT32"}}}, {"name": "StatefulPartitionedCall/efficient_sam/StatefulPartitionedCall/image_encoder/blocks.8/layer_norm1/batchnorm/ReadVariableOp", "op": "Const", "input": ["^args_0"], "attr": {"value": {"tensor": {"dtype": "DT_FLOAT", "tensorShape": {"dim": [{"size": "192"}]}}}, "dtype": {"type": "DT_FLOAT"}}}, {"name": "StatefulPartitionedCall/efficient_sam/StatefulPartitionedCall/image_encoder/blocks.7/mlp/fc2/Tensordot/Const", "op": "Const", "input": ["^args_0"], "attr": {"value": {"tensor": {"dtype": "DT_INT32", "tensorShape": {"dim": [{"size": "1"}]}}}, "dtype": {"type": "DT_INT32"}}}, {"name": "StatefulPartitionedCall/efficient_sam/StatefulPartitionedCall/image_encoder/blocks.7/mlp/fc2/Tensordot/axes", "op": "Const", "input": ["^args_0"], "attr": {"value": {"tensor": {"dtype": "DT_INT32", "tensorShape": {"dim": [{"size": "1"}]}}}, "dtype": {"type": "DT_INT32"}}}, {"name": "StatefulPartitionedCall/efficient_sam/StatefulPartitionedCall/image_encoder/blocks.7/mlp/fc2/Tensordot/GatherV2_1/axis", "op": "Const", "input": ["^args_0"], "attr": {"value": {"tensor": {"dtype": "DT_INT32", "tensorShape": {}}}, "dtype": {"type": "DT_INT32"}}}, {"name": "StatefulPartitionedCall/efficient_sam/StatefulPartitionedCall/image_encoder/blocks.7/mlp/fc2/Tensordot/Const_1", "op": "Const", "input": ["^args_0"], "attr": {"dtype": {"type": "DT_INT32"}, "value": {"tensor": {"dtype": "DT_INT32", "tensorShape": {"dim": [{"size": "1"}]}}}}}, {"name": "StatefulPartitionedCall/efficient_sam/StatefulPartitionedCall/image_encoder/blocks.7/mlp/fc2/Tensordot/ReadVariableOp", "op": "Const", "input": ["^args_0"], "attr": {"value": {"tensor": {"dtype": "DT_FLOAT", "tensorShape": {"dim": [{"size": "768"}, {"size": "192"}]}}}, "dtype": {"type": "DT_FLOAT"}}}, {"name": "StatefulPartitionedCall/efficient_sam/StatefulPartitionedCall/image_encoder/blocks.7/mlp/Gelu/mul/x", "op": "Const", "input": ["^args_0"], "attr": {"dtype": {"type": "DT_FLOAT"}, "value": {"tensor": {"dtype": "DT_FLOAT", "tensorShape": {}}}}}, {"name": "StatefulPartitionedCall/efficient_sam/StatefulPartitionedCall/image_encoder/blocks.7/mlp/Gelu/add/x", "op": "Const", "input": ["^args_0"], "attr": {"dtype": {"type": "DT_FLOAT"}, "value": {"tensor": {"dtype": "DT_FLOAT", "tensorShape": {}}}}}, {"name": "StatefulPartitionedCall/efficient_sam/StatefulPartitionedCall/image_encoder/blocks.7/mlp/fc1/Tensordot/Const", "op": "Const", "input": ["^args_0"], "attr": {"dtype": {"type": "DT_INT32"}, "value": {"tensor": {"dtype": "DT_INT32", "tensorShape": {"dim": [{"size": "1"}]}}}}}, {"name": "StatefulPartitionedCall/efficient_sam/StatefulPartitionedCall/image_encoder/blocks.7/mlp/fc1/Tensordot/axes", "op": "Const", "input": ["^args_0"], "attr": {"value": {"tensor": {"dtype": "DT_INT32", "tensorShape": {"dim": [{"size": "1"}]}}}, "dtype": {"type": "DT_INT32"}}}, {"name": "StatefulPartitionedCall/efficient_sam/StatefulPartitionedCall/image_encoder/blocks.7/mlp/fc1/Tensordot/GatherV2_1/axis", "op": "Const", "input": ["^args_0"], "attr": {"dtype": {"type": "DT_INT32"}, "value": {"tensor": {"dtype": "DT_INT32", "tensorShape": {}}}}}, {"name": "StatefulPartitionedCall/efficient_sam/StatefulPartitionedCall/image_encoder/blocks.7/mlp/fc1/Tensordot/Const_1", "op": "Const", "input": ["^args_0"], "attr": {"value": {"tensor": {"dtype": "DT_INT32", "tensorShape": {"dim": [{"size": "1"}]}}}, "dtype": {"type": "DT_INT32"}}}, {"name": "StatefulPartitionedCall/efficient_sam/StatefulPartitionedCall/image_encoder/blocks.7/mlp/fc1/Tensordot/ReadVariableOp", "op": "Const", "input": ["^args_0"], "attr": {"dtype": {"type": "DT_FLOAT"}, "value": {"tensor": {"dtype": "DT_FLOAT", "tensorShape": {"dim": [{"size": "192"}, {"size": "768"}]}}}}}, {"name": "StatefulPartitionedCall/efficient_sam/StatefulPartitionedCall/image_encoder/blocks.7/layer_norm2/batchnorm/ReadVariableOp", "op": "Const", "input": ["^args_0"], "attr": {"dtype": {"type": "DT_FLOAT"}, "value": {"tensor": {"dtype": "DT_FLOAT", "tensorShape": {"dim": [{"size": "192"}]}}}}}, {"name": "StatefulPartitionedCall/efficient_sam/StatefulPartitionedCall/image_encoder/blocks.7/attn/proj/Tensordot/Const", "op": "Const", "input": ["^args_0"], "attr": {"dtype": {"type": "DT_INT32"}, "value": {"tensor": {"dtype": "DT_INT32", "tensorShape": {"dim": [{"size": "1"}]}}}}}, {"name": "StatefulPartitionedCall/efficient_sam/StatefulPartitionedCall/image_encoder/blocks.7/attn/proj/Tensordot/axes", "op": "Const", "input": ["^args_0"], "attr": {"dtype": {"type": "DT_INT32"}, "value": {"tensor": {"dtype": "DT_INT32", "tensorShape": {"dim": [{"size": "1"}]}}}}}, {"name": "StatefulPartitionedCall/efficient_sam/StatefulPartitionedCall/image_encoder/blocks.7/attn/proj/Tensordot/GatherV2_1/axis", "op": "Const", "input": ["^args_0"], "attr": {"value": {"tensor": {"dtype": "DT_INT32", "tensorShape": {}}}, "dtype": {"type": "DT_INT32"}}}, {"name": "StatefulPartitionedCall/efficient_sam/StatefulPartitionedCall/image_encoder/blocks.7/attn/proj/Tensordot/Const_1", "op": "Const", "input": ["^args_0"], "attr": {"dtype": {"type": "DT_INT32"}, "value": {"tensor": {"dtype": "DT_INT32", "tensorShape": {"dim": [{"size": "1"}]}}}}}, {"name": "StatefulPartitionedCall/efficient_sam/StatefulPartitionedCall/image_encoder/blocks.7/attn/proj/Tensordot/ReadVariableOp", "op": "Const", "input": ["^args_0"], "attr": {"dtype": {"type": "DT_FLOAT"}, "value": {"tensor": {"dtype": "DT_FLOAT", "tensorShape": {"dim": [{"size": "192"}, {"size": "192"}]}}}}}, {"name": "StatefulPartitionedCall/efficient_sam/StatefulPartitionedCall/image_encoder/blocks.7/attn/mul/y", "op": "Const", "input": ["^args_0"], "attr": {"value": {"tensor": {"dtype": "DT_FLOAT", "tensorShape": {}}}, "dtype": {"type": "DT_FLOAT"}}}, {"name": "StatefulPartitionedCall/efficient_sam/StatefulPartitionedCall/image_encoder/blocks.7/attn/qkv/Tensordot/Const", "op": "Const", "input": ["^args_0"], "attr": {"value": {"tensor": {"dtype": "DT_INT32", "tensorShape": {"dim": [{"size": "1"}]}}}, "dtype": {"type": "DT_INT32"}}}, {"name": "StatefulPartitionedCall/efficient_sam/StatefulPartitionedCall/image_encoder/blocks.7/attn/qkv/Tensordot/axes", "op": "Const", "input": ["^args_0"], "attr": {"value": {"tensor": {"dtype": "DT_INT32", "tensorShape": {"dim": [{"size": "1"}]}}}, "dtype": {"type": "DT_INT32"}}}, {"name": "StatefulPartitionedCall/efficient_sam/StatefulPartitionedCall/image_encoder/blocks.7/attn/qkv/Tensordot/GatherV2_1/axis", "op": "Const", "input": ["^args_0"], "attr": {"dtype": {"type": "DT_INT32"}, "value": {"tensor": {"dtype": "DT_INT32", "tensorShape": {}}}}}, {"name": "StatefulPartitionedCall/efficient_sam/StatefulPartitionedCall/image_encoder/blocks.7/attn/qkv/Tensordot/Const_1", "op": "Const", "input": ["^args_0"], "attr": {"value": {"tensor": {"dtype": "DT_INT32", "tensorShape": {"dim": [{"size": "1"}]}}}, "dtype": {"type": "DT_INT32"}}}, {"name": "StatefulPartitionedCall/efficient_sam/StatefulPartitionedCall/image_encoder/blocks.7/attn/qkv/Tensordot/ReadVariableOp", "op": "Const", "input": ["^args_0"], "attr": {"value": {"tensor": {"dtype": "DT_FLOAT", "tensorShape": {"dim": [{"size": "192"}, {"size": "576"}]}}}, "dtype": {"type": "DT_FLOAT"}}}, {"name": "StatefulPartitionedCall/efficient_sam/StatefulPartitionedCall/image_encoder/blocks.7/attn/qkv/Tensordot/free", "op": "Const", "input": ["^args_0"], "attr": {"dtype": {"type": "DT_INT32"}, "value": {"tensor": {"dtype": "DT_INT32", "tensorShape": {"dim": [{"size": "2"}]}}}}}, {"name": "StatefulPartitionedCall/efficient_sam/StatefulPartitionedCall/image_encoder/blocks.7/attn/qkv/Tensordot/GatherV2/axis", "op": "Const", "input": ["^args_0"], "attr": {"value": {"tensor": {"dtype": "DT_INT32", "tensorShape": {}}}, "dtype": {"type": "DT_INT32"}}}, {"name": "StatefulPartitionedCall/efficient_sam/StatefulPartitionedCall/image_encoder/blocks.7/attn/qkv/Tensordot/Const_2", "op": "Const", "input": ["^args_0"], "attr": {"dtype": {"type": "DT_INT32"}, "value": {"tensor": {"dtype": "DT_INT32", "tensorShape": {"dim": [{"size": "1"}]}}}}}, {"name": "StatefulPartitionedCall/efficient_sam/StatefulPartitionedCall/image_encoder/blocks.7/attn/qkv/Tensordot/concat_1/axis", "op": "Const", "input": ["^args_0"], "attr": {"dtype": {"type": "DT_INT32"}, "value": {"tensor": {"dtype": "DT_INT32", "tensorShape": {}}}}}, {"name": "StatefulPartitionedCall/efficient_sam/StatefulPartitionedCall/image_encoder/blocks.7/attn/qkv/BiasAdd/ReadVariableOp", "op": "Const", "input": ["^args_0"], "attr": {"dtype": {"type": "DT_FLOAT"}, "value": {"tensor": {"dtype": "DT_FLOAT", "tensorShape": {"dim": [{"size": "576"}]}}}}}, {"name": "StatefulPartitionedCall/efficient_sam/StatefulPartitionedCall/image_encoder/blocks.7/attn/Reshape/shape/1", "op": "Const", "input": ["^args_0"], "attr": {"value": {"tensor": {"dtype": "DT_INT32", "tensorShape": {}}}, "dtype": {"type": "DT_INT32"}}}, {"name": "StatefulPartitionedCall/efficient_sam/StatefulPartitionedCall/image_encoder/blocks.7/attn/Reshape/shape/2", "op": "Const", "input": ["^args_0"], "attr": {"value": {"tensor": {"dtype": "DT_INT32", "tensorShape": {}}}, "dtype": {"type": "DT_INT32"}}}, {"name": "StatefulPartitionedCall/efficient_sam/StatefulPartitionedCall/image_encoder/blocks.7/attn/Reshape/shape/3", "op": "Const", "input": ["^args_0"], "attr": {"dtype": {"type": "DT_INT32"}, "value": {"tensor": {"dtype": "DT_INT32", "tensorShape": {}}}}}, {"name": "StatefulPartitionedCall/efficient_sam/StatefulPartitionedCall/image_encoder/blocks.7/attn/Reshape/shape/4", "op": "Const", "input": ["^args_0"], "attr": {"value": {"tensor": {"dtype": "DT_INT32", "tensorShape": {}}}, "dtype": {"type": "DT_INT32"}}}, {"name": "StatefulPartitionedCall/efficient_sam/StatefulPartitionedCall/image_encoder/blocks.7/attn/transpose/perm", "op": "Const", "input": ["^args_0"], "attr": {"value": {"tensor": {"dtype": "DT_INT32", "tensorShape": {"dim": [{"size": "5"}]}}}, "dtype": {"type": "DT_INT32"}}}, {"name": "StatefulPartitionedCall/efficient_sam/StatefulPartitionedCall/image_encoder/blocks.7/attn/transpose_2/perm", "op": "Const", "input": ["^args_0"], "attr": {"value": {"tensor": {"dtype": "DT_INT32", "tensorShape": {"dim": [{"size": "4"}]}}}, "dtype": {"type": "DT_INT32"}}}, {"name": "StatefulPartitionedCall/efficient_sam/StatefulPartitionedCall/image_encoder/blocks.7/layer_norm1/batchnorm/ReadVariableOp", "op": "Const", "input": ["^args_0"], "attr": {"value": {"tensor": {"dtype": "DT_FLOAT", "tensorShape": {"dim": [{"size": "192"}]}}}, "dtype": {"type": "DT_FLOAT"}}}, {"name": "StatefulPartitionedCall/efficient_sam/StatefulPartitionedCall/image_encoder/blocks.6/mlp/fc2/Tensordot/Const", "op": "Const", "input": ["^args_0"], "attr": {"dtype": {"type": "DT_INT32"}, "value": {"tensor": {"dtype": "DT_INT32", "tensorShape": {"dim": [{"size": "1"}]}}}}}, {"name": "StatefulPartitionedCall/efficient_sam/StatefulPartitionedCall/image_encoder/blocks.6/mlp/fc2/Tensordot/axes", "op": "Const", "input": ["^args_0"], "attr": {"value": {"tensor": {"dtype": "DT_INT32", "tensorShape": {"dim": [{"size": "1"}]}}}, "dtype": {"type": "DT_INT32"}}}, {"name": "StatefulPartitionedCall/efficient_sam/StatefulPartitionedCall/image_encoder/blocks.6/mlp/fc2/Tensordot/GatherV2_1/axis", "op": "Const", "input": ["^args_0"], "attr": {"dtype": {"type": "DT_INT32"}, "value": {"tensor": {"dtype": "DT_INT32", "tensorShape": {}}}}}, {"name": "StatefulPartitionedCall/efficient_sam/StatefulPartitionedCall/image_encoder/blocks.6/mlp/fc2/Tensordot/Const_1", "op": "Const", "input": ["^args_0"], "attr": {"value": {"tensor": {"dtype": "DT_INT32", "tensorShape": {"dim": [{"size": "1"}]}}}, "dtype": {"type": "DT_INT32"}}}, {"name": "StatefulPartitionedCall/efficient_sam/StatefulPartitionedCall/image_encoder/blocks.6/mlp/fc2/Tensordot/ReadVariableOp", "op": "Const", "input": ["^args_0"], "attr": {"dtype": {"type": "DT_FLOAT"}, "value": {"tensor": {"dtype": "DT_FLOAT", "tensorShape": {"dim": [{"size": "768"}, {"size": "192"}]}}}}}, {"name": "StatefulPartitionedCall/efficient_sam/StatefulPartitionedCall/image_encoder/blocks.6/mlp/Gelu/mul/x", "op": "Const", "input": ["^args_0"], "attr": {"value": {"tensor": {"dtype": "DT_FLOAT", "tensorShape": {}}}, "dtype": {"type": "DT_FLOAT"}}}, {"name": "StatefulPartitionedCall/efficient_sam/StatefulPartitionedCall/image_encoder/blocks.6/mlp/Gelu/add/x", "op": "Const", "input": ["^args_0"], "attr": {"value": {"tensor": {"dtype": "DT_FLOAT", "tensorShape": {}}}, "dtype": {"type": "DT_FLOAT"}}}, {"name": "StatefulPartitionedCall/efficient_sam/StatefulPartitionedCall/image_encoder/blocks.6/mlp/fc1/Tensordot/Const", "op": "Const", "input": ["^args_0"], "attr": {"value": {"tensor": {"dtype": "DT_INT32", "tensorShape": {"dim": [{"size": "1"}]}}}, "dtype": {"type": "DT_INT32"}}}, {"name": "StatefulPartitionedCall/efficient_sam/StatefulPartitionedCall/image_encoder/blocks.6/mlp/fc1/Tensordot/axes", "op": "Const", "input": ["^args_0"], "attr": {"dtype": {"type": "DT_INT32"}, "value": {"tensor": {"dtype": "DT_INT32", "tensorShape": {"dim": [{"size": "1"}]}}}}}, {"name": "StatefulPartitionedCall/efficient_sam/StatefulPartitionedCall/image_encoder/blocks.6/mlp/fc1/Tensordot/GatherV2_1/axis", "op": "Const", "input": ["^args_0"], "attr": {"value": {"tensor": {"dtype": "DT_INT32", "tensorShape": {}}}, "dtype": {"type": "DT_INT32"}}}, {"name": "StatefulPartitionedCall/efficient_sam/StatefulPartitionedCall/image_encoder/blocks.6/mlp/fc1/Tensordot/Const_1", "op": "Const", "input": ["^args_0"], "attr": {"value": {"tensor": {"dtype": "DT_INT32", "tensorShape": {"dim": [{"size": "1"}]}}}, "dtype": {"type": "DT_INT32"}}}, {"name": "StatefulPartitionedCall/efficient_sam/StatefulPartitionedCall/image_encoder/blocks.6/mlp/fc1/Tensordot/ReadVariableOp", "op": "Const", "input": ["^args_0"], "attr": {"dtype": {"type": "DT_FLOAT"}, "value": {"tensor": {"dtype": "DT_FLOAT", "tensorShape": {"dim": [{"size": "192"}, {"size": "768"}]}}}}}, {"name": "StatefulPartitionedCall/efficient_sam/StatefulPartitionedCall/image_encoder/blocks.6/layer_norm2/batchnorm/ReadVariableOp", "op": "Const", "input": ["^args_0"], "attr": {"value": {"tensor": {"dtype": "DT_FLOAT", "tensorShape": {"dim": [{"size": "192"}]}}}, "dtype": {"type": "DT_FLOAT"}}}, {"name": "StatefulPartitionedCall/efficient_sam/StatefulPartitionedCall/image_encoder/blocks.6/attn/proj/Tensordot/Const", "op": "Const", "input": ["^args_0"], "attr": {"value": {"tensor": {"dtype": "DT_INT32", "tensorShape": {"dim": [{"size": "1"}]}}}, "dtype": {"type": "DT_INT32"}}}, {"name": "StatefulPartitionedCall/efficient_sam/StatefulPartitionedCall/image_encoder/blocks.6/attn/proj/Tensordot/axes", "op": "Const", "input": ["^args_0"], "attr": {"dtype": {"type": "DT_INT32"}, "value": {"tensor": {"dtype": "DT_INT32", "tensorShape": {"dim": [{"size": "1"}]}}}}}, {"name": "StatefulPartitionedCall/efficient_sam/StatefulPartitionedCall/image_encoder/blocks.6/attn/proj/Tensordot/GatherV2_1/axis", "op": "Const", "input": ["^args_0"], "attr": {"value": {"tensor": {"dtype": "DT_INT32", "tensorShape": {}}}, "dtype": {"type": "DT_INT32"}}}, {"name": "StatefulPartitionedCall/efficient_sam/StatefulPartitionedCall/image_encoder/blocks.6/attn/proj/Tensordot/Const_1", "op": "Const", "input": ["^args_0"], "attr": {"dtype": {"type": "DT_INT32"}, "value": {"tensor": {"dtype": "DT_INT32", "tensorShape": {"dim": [{"size": "1"}]}}}}}, {"name": "StatefulPartitionedCall/efficient_sam/StatefulPartitionedCall/image_encoder/blocks.6/attn/proj/Tensordot/ReadVariableOp", "op": "Const", "input": ["^args_0"], "attr": {"value": {"tensor": {"dtype": "DT_FLOAT", "tensorShape": {"dim": [{"size": "192"}, {"size": "192"}]}}}, "dtype": {"type": "DT_FLOAT"}}}, {"name": "StatefulPartitionedCall/efficient_sam/StatefulPartitionedCall/image_encoder/blocks.6/attn/mul/y", "op": "Const", "input": ["^args_0"], "attr": {"value": {"tensor": {"dtype": "DT_FLOAT", "tensorShape": {}}}, "dtype": {"type": "DT_FLOAT"}}}, {"name": "StatefulPartitionedCall/efficient_sam/StatefulPartitionedCall/image_encoder/blocks.6/attn/qkv/Tensordot/Const", "op": "Const", "input": ["^args_0"], "attr": {"dtype": {"type": "DT_INT32"}, "value": {"tensor": {"dtype": "DT_INT32", "tensorShape": {"dim": [{"size": "1"}]}}}}}, {"name": "StatefulPartitionedCall/efficient_sam/StatefulPartitionedCall/image_encoder/blocks.6/attn/qkv/Tensordot/axes", "op": "Const", "input": ["^args_0"], "attr": {"value": {"tensor": {"dtype": "DT_INT32", "tensorShape": {"dim": [{"size": "1"}]}}}, "dtype": {"type": "DT_INT32"}}}, {"name": "StatefulPartitionedCall/efficient_sam/StatefulPartitionedCall/image_encoder/blocks.6/attn/qkv/Tensordot/GatherV2_1/axis", "op": "Const", "input": ["^args_0"], "attr": {"dtype": {"type": "DT_INT32"}, "value": {"tensor": {"dtype": "DT_INT32", "tensorShape": {}}}}}, {"name": "StatefulPartitionedCall/efficient_sam/StatefulPartitionedCall/image_encoder/blocks.6/attn/qkv/Tensordot/Const_1", "op": "Const", "input": ["^args_0"], "attr": {"value": {"tensor": {"dtype": "DT_INT32", "tensorShape": {"dim": [{"size": "1"}]}}}, "dtype": {"type": "DT_INT32"}}}, {"name": "StatefulPartitionedCall/efficient_sam/StatefulPartitionedCall/image_encoder/blocks.6/attn/qkv/Tensordot/ReadVariableOp", "op": "Const", "input": ["^args_0"], "attr": {"value": {"tensor": {"dtype": "DT_FLOAT", "tensorShape": {"dim": [{"size": "192"}, {"size": "576"}]}}}, "dtype": {"type": "DT_FLOAT"}}}, {"name": "StatefulPartitionedCall/efficient_sam/StatefulPartitionedCall/image_encoder/blocks.6/attn/qkv/Tensordot/free", "op": "Const", "input": ["^args_0"], "attr": {"value": {"tensor": {"dtype": "DT_INT32", "tensorShape": {"dim": [{"size": "2"}]}}}, "dtype": {"type": "DT_INT32"}}}, {"name": "StatefulPartitionedCall/efficient_sam/StatefulPartitionedCall/image_encoder/blocks.6/attn/qkv/Tensordot/GatherV2/axis", "op": "Const", "input": ["^args_0"], "attr": {"dtype": {"type": "DT_INT32"}, "value": {"tensor": {"dtype": "DT_INT32", "tensorShape": {}}}}}, {"name": "StatefulPartitionedCall/efficient_sam/StatefulPartitionedCall/image_encoder/blocks.6/attn/qkv/Tensordot/Const_2", "op": "Const", "input": ["^args_0"], "attr": {"dtype": {"type": "DT_INT32"}, "value": {"tensor": {"dtype": "DT_INT32", "tensorShape": {"dim": [{"size": "1"}]}}}}}, {"name": "StatefulPartitionedCall/efficient_sam/StatefulPartitionedCall/image_encoder/blocks.6/attn/qkv/Tensordot/concat_1/axis", "op": "Const", "input": ["^args_0"], "attr": {"dtype": {"type": "DT_INT32"}, "value": {"tensor": {"dtype": "DT_INT32", "tensorShape": {}}}}}, {"name": "StatefulPartitionedCall/efficient_sam/StatefulPartitionedCall/image_encoder/blocks.6/attn/qkv/BiasAdd/ReadVariableOp", "op": "Const", "input": ["^args_0"], "attr": {"value": {"tensor": {"dtype": "DT_FLOAT", "tensorShape": {"dim": [{"size": "576"}]}}}, "dtype": {"type": "DT_FLOAT"}}}, {"name": "StatefulPartitionedCall/efficient_sam/StatefulPartitionedCall/image_encoder/blocks.6/attn/Reshape/shape/1", "op": "Const", "input": ["^args_0"], "attr": {"dtype": {"type": "DT_INT32"}, "value": {"tensor": {"dtype": "DT_INT32", "tensorShape": {}}}}}, {"name": "StatefulPartitionedCall/efficient_sam/StatefulPartitionedCall/image_encoder/blocks.6/attn/Reshape/shape/2", "op": "Const", "input": ["^args_0"], "attr": {"value": {"tensor": {"dtype": "DT_INT32", "tensorShape": {}}}, "dtype": {"type": "DT_INT32"}}}, {"name": "StatefulPartitionedCall/efficient_sam/StatefulPartitionedCall/image_encoder/blocks.6/attn/Reshape/shape/3", "op": "Const", "input": ["^args_0"], "attr": {"value": {"tensor": {"dtype": "DT_INT32", "tensorShape": {}}}, "dtype": {"type": "DT_INT32"}}}, {"name": "StatefulPartitionedCall/efficient_sam/StatefulPartitionedCall/image_encoder/blocks.6/attn/Reshape/shape/4", "op": "Const", "input": ["^args_0"], "attr": {"value": {"tensor": {"dtype": "DT_INT32", "tensorShape": {}}}, "dtype": {"type": "DT_INT32"}}}, {"name": "StatefulPartitionedCall/efficient_sam/StatefulPartitionedCall/image_encoder/blocks.6/attn/transpose/perm", "op": "Const", "input": ["^args_0"], "attr": {"value": {"tensor": {"dtype": "DT_INT32", "tensorShape": {"dim": [{"size": "5"}]}}}, "dtype": {"type": "DT_INT32"}}}, {"name": "StatefulPartitionedCall/efficient_sam/StatefulPartitionedCall/image_encoder/blocks.6/attn/transpose_2/perm", "op": "Const", "input": ["^args_0"], "attr": {"value": {"tensor": {"dtype": "DT_INT32", "tensorShape": {"dim": [{"size": "4"}]}}}, "dtype": {"type": "DT_INT32"}}}, {"name": "StatefulPartitionedCall/efficient_sam/StatefulPartitionedCall/image_encoder/blocks.6/layer_norm1/batchnorm/ReadVariableOp", "op": "Const", "input": ["^args_0"], "attr": {"dtype": {"type": "DT_FLOAT"}, "value": {"tensor": {"dtype": "DT_FLOAT", "tensorShape": {"dim": [{"size": "192"}]}}}}}, {"name": "StatefulPartitionedCall/efficient_sam/StatefulPartitionedCall/image_encoder/blocks.5/mlp/fc2/Tensordot/Const", "op": "Const", "input": ["^args_0"], "attr": {"value": {"tensor": {"dtype": "DT_INT32", "tensorShape": {"dim": [{"size": "1"}]}}}, "dtype": {"type": "DT_INT32"}}}, {"name": "StatefulPartitionedCall/efficient_sam/StatefulPartitionedCall/image_encoder/blocks.5/mlp/fc2/Tensordot/axes", "op": "Const", "input": ["^args_0"], "attr": {"value": {"tensor": {"dtype": "DT_INT32", "tensorShape": {"dim": [{"size": "1"}]}}}, "dtype": {"type": "DT_INT32"}}}, {"name": "StatefulPartitionedCall/efficient_sam/StatefulPartitionedCall/image_encoder/blocks.5/mlp/fc2/Tensordot/GatherV2_1/axis", "op": "Const", "input": ["^args_0"], "attr": {"dtype": {"type": "DT_INT32"}, "value": {"tensor": {"dtype": "DT_INT32", "tensorShape": {}}}}}, {"name": "StatefulPartitionedCall/efficient_sam/StatefulPartitionedCall/image_encoder/blocks.5/mlp/fc2/Tensordot/Const_1", "op": "Const", "input": ["^args_0"], "attr": {"dtype": {"type": "DT_INT32"}, "value": {"tensor": {"dtype": "DT_INT32", "tensorShape": {"dim": [{"size": "1"}]}}}}}, {"name": "StatefulPartitionedCall/efficient_sam/StatefulPartitionedCall/image_encoder/blocks.5/mlp/fc2/Tensordot/ReadVariableOp", "op": "Const", "input": ["^args_0"], "attr": {"value": {"tensor": {"dtype": "DT_FLOAT", "tensorShape": {"dim": [{"size": "768"}, {"size": "192"}]}}}, "dtype": {"type": "DT_FLOAT"}}}, {"name": "StatefulPartitionedCall/efficient_sam/StatefulPartitionedCall/image_encoder/blocks.5/mlp/Gelu/mul/x", "op": "Const", "input": ["^args_0"], "attr": {"dtype": {"type": "DT_FLOAT"}, "value": {"tensor": {"dtype": "DT_FLOAT", "tensorShape": {}}}}}, {"name": "StatefulPartitionedCall/efficient_sam/StatefulPartitionedCall/image_encoder/blocks.5/mlp/Gelu/add/x", "op": "Const", "input": ["^args_0"], "attr": {"value": {"tensor": {"dtype": "DT_FLOAT", "tensorShape": {}}}, "dtype": {"type": "DT_FLOAT"}}}, {"name": "StatefulPartitionedCall/efficient_sam/StatefulPartitionedCall/image_encoder/blocks.5/mlp/fc1/Tensordot/Const", "op": "Const", "input": ["^args_0"], "attr": {"value": {"tensor": {"dtype": "DT_INT32", "tensorShape": {"dim": [{"size": "1"}]}}}, "dtype": {"type": "DT_INT32"}}}, {"name": "StatefulPartitionedCall/efficient_sam/StatefulPartitionedCall/image_encoder/blocks.5/mlp/fc1/Tensordot/axes", "op": "Const", "input": ["^args_0"], "attr": {"value": {"tensor": {"dtype": "DT_INT32", "tensorShape": {"dim": [{"size": "1"}]}}}, "dtype": {"type": "DT_INT32"}}}, {"name": "StatefulPartitionedCall/efficient_sam/StatefulPartitionedCall/image_encoder/blocks.5/mlp/fc1/Tensordot/GatherV2_1/axis", "op": "Const", "input": ["^args_0"], "attr": {"value": {"tensor": {"dtype": "DT_INT32", "tensorShape": {}}}, "dtype": {"type": "DT_INT32"}}}, {"name": "StatefulPartitionedCall/efficient_sam/StatefulPartitionedCall/image_encoder/blocks.5/mlp/fc1/Tensordot/Const_1", "op": "Const", "input": ["^args_0"], "attr": {"dtype": {"type": "DT_INT32"}, "value": {"tensor": {"dtype": "DT_INT32", "tensorShape": {"dim": [{"size": "1"}]}}}}}, {"name": "StatefulPartitionedCall/efficient_sam/StatefulPartitionedCall/image_encoder/blocks.5/mlp/fc1/Tensordot/ReadVariableOp", "op": "Const", "input": ["^args_0"], "attr": {"dtype": {"type": "DT_FLOAT"}, "value": {"tensor": {"dtype": "DT_FLOAT", "tensorShape": {"dim": [{"size": "192"}, {"size": "768"}]}}}}}, {"name": "StatefulPartitionedCall/efficient_sam/StatefulPartitionedCall/image_encoder/blocks.5/layer_norm2/batchnorm/ReadVariableOp", "op": "Const", "input": ["^args_0"], "attr": {"dtype": {"type": "DT_FLOAT"}, "value": {"tensor": {"dtype": "DT_FLOAT", "tensorShape": {"dim": [{"size": "192"}]}}}}}, {"name": "StatefulPartitionedCall/efficient_sam/StatefulPartitionedCall/image_encoder/blocks.5/attn/proj/Tensordot/Const", "op": "Const", "input": ["^args_0"], "attr": {"value": {"tensor": {"dtype": "DT_INT32", "tensorShape": {"dim": [{"size": "1"}]}}}, "dtype": {"type": "DT_INT32"}}}, {"name": "StatefulPartitionedCall/efficient_sam/StatefulPartitionedCall/image_encoder/blocks.5/attn/proj/Tensordot/axes", "op": "Const", "input": ["^args_0"], "attr": {"dtype": {"type": "DT_INT32"}, "value": {"tensor": {"dtype": "DT_INT32", "tensorShape": {"dim": [{"size": "1"}]}}}}}, {"name": "StatefulPartitionedCall/efficient_sam/StatefulPartitionedCall/image_encoder/blocks.5/attn/proj/Tensordot/GatherV2_1/axis", "op": "Const", "input": ["^args_0"], "attr": {"dtype": {"type": "DT_INT32"}, "value": {"tensor": {"dtype": "DT_INT32", "tensorShape": {}}}}}, {"name": "StatefulPartitionedCall/efficient_sam/StatefulPartitionedCall/image_encoder/blocks.5/attn/proj/Tensordot/Const_1", "op": "Const", "input": ["^args_0"], "attr": {"value": {"tensor": {"dtype": "DT_INT32", "tensorShape": {"dim": [{"size": "1"}]}}}, "dtype": {"type": "DT_INT32"}}}, {"name": "StatefulPartitionedCall/efficient_sam/StatefulPartitionedCall/image_encoder/blocks.5/attn/proj/Tensordot/ReadVariableOp", "op": "Const", "input": ["^args_0"], "attr": {"value": {"tensor": {"dtype": "DT_FLOAT", "tensorShape": {"dim": [{"size": "192"}, {"size": "192"}]}}}, "dtype": {"type": "DT_FLOAT"}}}, {"name": "StatefulPartitionedCall/efficient_sam/StatefulPartitionedCall/image_encoder/blocks.5/attn/mul/y", "op": "Const", "input": ["^args_0"], "attr": {"value": {"tensor": {"dtype": "DT_FLOAT", "tensorShape": {}}}, "dtype": {"type": "DT_FLOAT"}}}, {"name": "StatefulPartitionedCall/efficient_sam/StatefulPartitionedCall/image_encoder/blocks.5/attn/qkv/Tensordot/Const", "op": "Const", "input": ["^args_0"], "attr": {"dtype": {"type": "DT_INT32"}, "value": {"tensor": {"dtype": "DT_INT32", "tensorShape": {"dim": [{"size": "1"}]}}}}}, {"name": "StatefulPartitionedCall/efficient_sam/StatefulPartitionedCall/image_encoder/blocks.5/attn/qkv/Tensordot/axes", "op": "Const", "input": ["^args_0"], "attr": {"value": {"tensor": {"dtype": "DT_INT32", "tensorShape": {"dim": [{"size": "1"}]}}}, "dtype": {"type": "DT_INT32"}}}, {"name": "StatefulPartitionedCall/efficient_sam/StatefulPartitionedCall/image_encoder/blocks.5/attn/qkv/Tensordot/GatherV2_1/axis", "op": "Const", "input": ["^args_0"], "attr": {"value": {"tensor": {"dtype": "DT_INT32", "tensorShape": {}}}, "dtype": {"type": "DT_INT32"}}}, {"name": "StatefulPartitionedCall/efficient_sam/StatefulPartitionedCall/image_encoder/blocks.5/attn/qkv/Tensordot/Const_1", "op": "Const", "input": ["^args_0"], "attr": {"dtype": {"type": "DT_INT32"}, "value": {"tensor": {"dtype": "DT_INT32", "tensorShape": {"dim": [{"size": "1"}]}}}}}, {"name": "StatefulPartitionedCall/efficient_sam/StatefulPartitionedCall/image_encoder/blocks.5/attn/qkv/Tensordot/ReadVariableOp", "op": "Const", "input": ["^args_0"], "attr": {"value": {"tensor": {"dtype": "DT_FLOAT", "tensorShape": {"dim": [{"size": "192"}, {"size": "576"}]}}}, "dtype": {"type": "DT_FLOAT"}}}, {"name": "StatefulPartitionedCall/efficient_sam/StatefulPartitionedCall/image_encoder/blocks.5/attn/qkv/Tensordot/free", "op": "Const", "input": ["^args_0"], "attr": {"dtype": {"type": "DT_INT32"}, "value": {"tensor": {"dtype": "DT_INT32", "tensorShape": {"dim": [{"size": "2"}]}}}}}, {"name": "StatefulPartitionedCall/efficient_sam/StatefulPartitionedCall/image_encoder/blocks.5/attn/qkv/Tensordot/GatherV2/axis", "op": "Const", "input": ["^args_0"], "attr": {"dtype": {"type": "DT_INT32"}, "value": {"tensor": {"dtype": "DT_INT32", "tensorShape": {}}}}}, {"name": "StatefulPartitionedCall/efficient_sam/StatefulPartitionedCall/image_encoder/blocks.5/attn/qkv/Tensordot/Const_2", "op": "Const", "input": ["^args_0"], "attr": {"dtype": {"type": "DT_INT32"}, "value": {"tensor": {"dtype": "DT_INT32", "tensorShape": {"dim": [{"size": "1"}]}}}}}, {"name": "StatefulPartitionedCall/efficient_sam/StatefulPartitionedCall/image_encoder/blocks.5/attn/qkv/Tensordot/concat_1/axis", "op": "Const", "input": ["^args_0"], "attr": {"value": {"tensor": {"dtype": "DT_INT32", "tensorShape": {}}}, "dtype": {"type": "DT_INT32"}}}, {"name": "StatefulPartitionedCall/efficient_sam/StatefulPartitionedCall/image_encoder/blocks.5/attn/qkv/BiasAdd/ReadVariableOp", "op": "Const", "input": ["^args_0"], "attr": {"dtype": {"type": "DT_FLOAT"}, "value": {"tensor": {"dtype": "DT_FLOAT", "tensorShape": {"dim": [{"size": "576"}]}}}}}, {"name": "StatefulPartitionedCall/efficient_sam/StatefulPartitionedCall/image_encoder/blocks.5/attn/Reshape/shape/1", "op": "Const", "input": ["^args_0"], "attr": {"dtype": {"type": "DT_INT32"}, "value": {"tensor": {"dtype": "DT_INT32", "tensorShape": {}}}}}, {"name": "StatefulPartitionedCall/efficient_sam/StatefulPartitionedCall/image_encoder/blocks.5/attn/Reshape/shape/2", "op": "Const", "input": ["^args_0"], "attr": {"value": {"tensor": {"dtype": "DT_INT32", "tensorShape": {}}}, "dtype": {"type": "DT_INT32"}}}, {"name": "StatefulPartitionedCall/efficient_sam/StatefulPartitionedCall/image_encoder/blocks.5/attn/Reshape/shape/3", "op": "Const", "input": ["^args_0"], "attr": {"dtype": {"type": "DT_INT32"}, "value": {"tensor": {"dtype": "DT_INT32", "tensorShape": {}}}}}, {"name": "StatefulPartitionedCall/efficient_sam/StatefulPartitionedCall/image_encoder/blocks.5/attn/Reshape/shape/4", "op": "Const", "input": ["^args_0"], "attr": {"dtype": {"type": "DT_INT32"}, "value": {"tensor": {"dtype": "DT_INT32", "tensorShape": {}}}}}, {"name": "StatefulPartitionedCall/efficient_sam/StatefulPartitionedCall/image_encoder/blocks.5/attn/transpose/perm", "op": "Const", "input": ["^args_0"], "attr": {"value": {"tensor": {"dtype": "DT_INT32", "tensorShape": {"dim": [{"size": "5"}]}}}, "dtype": {"type": "DT_INT32"}}}, {"name": "StatefulPartitionedCall/efficient_sam/StatefulPartitionedCall/image_encoder/blocks.5/attn/transpose_2/perm", "op": "Const", "input": ["^args_0"], "attr": {"dtype": {"type": "DT_INT32"}, "value": {"tensor": {"dtype": "DT_INT32", "tensorShape": {"dim": [{"size": "4"}]}}}}}, {"name": "StatefulPartitionedCall/efficient_sam/StatefulPartitionedCall/image_encoder/blocks.5/layer_norm1/batchnorm/ReadVariableOp", "op": "Const", "input": ["^args_0"], "attr": {"value": {"tensor": {"dtype": "DT_FLOAT", "tensorShape": {"dim": [{"size": "192"}]}}}, "dtype": {"type": "DT_FLOAT"}}}, {"name": "StatefulPartitionedCall/efficient_sam/StatefulPartitionedCall/image_encoder/blocks.4/mlp/fc2/Tensordot/Const", "op": "Const", "input": ["^args_0"], "attr": {"dtype": {"type": "DT_INT32"}, "value": {"tensor": {"dtype": "DT_INT32", "tensorShape": {"dim": [{"size": "1"}]}}}}}, {"name": "StatefulPartitionedCall/efficient_sam/StatefulPartitionedCall/image_encoder/blocks.4/mlp/fc2/Tensordot/axes", "op": "Const", "input": ["^args_0"], "attr": {"dtype": {"type": "DT_INT32"}, "value": {"tensor": {"dtype": "DT_INT32", "tensorShape": {"dim": [{"size": "1"}]}}}}}, {"name": "StatefulPartitionedCall/efficient_sam/StatefulPartitionedCall/image_encoder/blocks.4/mlp/fc2/Tensordot/GatherV2_1/axis", "op": "Const", "input": ["^args_0"], "attr": {"value": {"tensor": {"dtype": "DT_INT32", "tensorShape": {}}}, "dtype": {"type": "DT_INT32"}}}, {"name": "StatefulPartitionedCall/efficient_sam/StatefulPartitionedCall/image_encoder/blocks.4/mlp/fc2/Tensordot/Const_1", "op": "Const", "input": ["^args_0"], "attr": {"dtype": {"type": "DT_INT32"}, "value": {"tensor": {"dtype": "DT_INT32", "tensorShape": {"dim": [{"size": "1"}]}}}}}, {"name": "StatefulPartitionedCall/efficient_sam/StatefulPartitionedCall/image_encoder/blocks.4/mlp/fc2/Tensordot/ReadVariableOp", "op": "Const", "input": ["^args_0"], "attr": {"value": {"tensor": {"dtype": "DT_FLOAT", "tensorShape": {"dim": [{"size": "768"}, {"size": "192"}]}}}, "dtype": {"type": "DT_FLOAT"}}}, {"name": "StatefulPartitionedCall/efficient_sam/StatefulPartitionedCall/image_encoder/blocks.4/mlp/Gelu/mul/x", "op": "Const", "input": ["^args_0"], "attr": {"dtype": {"type": "DT_FLOAT"}, "value": {"tensor": {"dtype": "DT_FLOAT", "tensorShape": {}}}}}, {"name": "StatefulPartitionedCall/efficient_sam/StatefulPartitionedCall/image_encoder/blocks.4/mlp/Gelu/add/x", "op": "Const", "input": ["^args_0"], "attr": {"value": {"tensor": {"dtype": "DT_FLOAT", "tensorShape": {}}}, "dtype": {"type": "DT_FLOAT"}}}, {"name": "StatefulPartitionedCall/efficient_sam/StatefulPartitionedCall/image_encoder/blocks.4/mlp/fc1/Tensordot/Const", "op": "Const", "input": ["^args_0"], "attr": {"value": {"tensor": {"dtype": "DT_INT32", "tensorShape": {"dim": [{"size": "1"}]}}}, "dtype": {"type": "DT_INT32"}}}, {"name": "StatefulPartitionedCall/efficient_sam/StatefulPartitionedCall/image_encoder/blocks.4/mlp/fc1/Tensordot/axes", "op": "Const", "input": ["^args_0"], "attr": {"value": {"tensor": {"dtype": "DT_INT32", "tensorShape": {"dim": [{"size": "1"}]}}}, "dtype": {"type": "DT_INT32"}}}, {"name": "StatefulPartitionedCall/efficient_sam/StatefulPartitionedCall/image_encoder/blocks.4/mlp/fc1/Tensordot/GatherV2_1/axis", "op": "Const", "input": ["^args_0"], "attr": {"dtype": {"type": "DT_INT32"}, "value": {"tensor": {"dtype": "DT_INT32", "tensorShape": {}}}}}, {"name": "StatefulPartitionedCall/efficient_sam/StatefulPartitionedCall/image_encoder/blocks.4/mlp/fc1/Tensordot/Const_1", "op": "Const", "input": ["^args_0"], "attr": {"dtype": {"type": "DT_INT32"}, "value": {"tensor": {"dtype": "DT_INT32", "tensorShape": {"dim": [{"size": "1"}]}}}}}, {"name": "StatefulPartitionedCall/efficient_sam/StatefulPartitionedCall/image_encoder/blocks.4/mlp/fc1/Tensordot/ReadVariableOp", "op": "Const", "input": ["^args_0"], "attr": {"value": {"tensor": {"dtype": "DT_FLOAT", "tensorShape": {"dim": [{"size": "192"}, {"size": "768"}]}}}, "dtype": {"type": "DT_FLOAT"}}}, {"name": "StatefulPartitionedCall/efficient_sam/StatefulPartitionedCall/image_encoder/blocks.4/layer_norm2/batchnorm/ReadVariableOp", "op": "Const", "input": ["^args_0"], "attr": {"dtype": {"type": "DT_FLOAT"}, "value": {"tensor": {"dtype": "DT_FLOAT", "tensorShape": {"dim": [{"size": "192"}]}}}}}, {"name": "StatefulPartitionedCall/efficient_sam/StatefulPartitionedCall/image_encoder/blocks.4/attn/proj/Tensordot/Const", "op": "Const", "input": ["^args_0"], "attr": {"dtype": {"type": "DT_INT32"}, "value": {"tensor": {"dtype": "DT_INT32", "tensorShape": {"dim": [{"size": "1"}]}}}}}, {"name": "StatefulPartitionedCall/efficient_sam/StatefulPartitionedCall/image_encoder/blocks.4/attn/proj/Tensordot/axes", "op": "Const", "input": ["^args_0"], "attr": {"value": {"tensor": {"dtype": "DT_INT32", "tensorShape": {"dim": [{"size": "1"}]}}}, "dtype": {"type": "DT_INT32"}}}, {"name": "StatefulPartitionedCall/efficient_sam/StatefulPartitionedCall/image_encoder/blocks.4/attn/proj/Tensordot/GatherV2_1/axis", "op": "Const", "input": ["^args_0"], "attr": {"dtype": {"type": "DT_INT32"}, "value": {"tensor": {"dtype": "DT_INT32", "tensorShape": {}}}}}, {"name": "StatefulPartitionedCall/efficient_sam/StatefulPartitionedCall/image_encoder/blocks.4/attn/proj/Tensordot/Const_1", "op": "Const", "input": ["^args_0"], "attr": {"value": {"tensor": {"dtype": "DT_INT32", "tensorShape": {"dim": [{"size": "1"}]}}}, "dtype": {"type": "DT_INT32"}}}, {"name": "StatefulPartitionedCall/efficient_sam/StatefulPartitionedCall/image_encoder/blocks.4/attn/proj/Tensordot/ReadVariableOp", "op": "Const", "input": ["^args_0"], "attr": {"dtype": {"type": "DT_FLOAT"}, "value": {"tensor": {"dtype": "DT_FLOAT", "tensorShape": {"dim": [{"size": "192"}, {"size": "192"}]}}}}}, {"name": "StatefulPartitionedCall/efficient_sam/StatefulPartitionedCall/image_encoder/blocks.4/attn/mul/y", "op": "Const", "input": ["^args_0"], "attr": {"dtype": {"type": "DT_FLOAT"}, "value": {"tensor": {"dtype": "DT_FLOAT", "tensorShape": {}}}}}, {"name": "StatefulPartitionedCall/efficient_sam/StatefulPartitionedCall/image_encoder/blocks.4/attn/qkv/Tensordot/Const", "op": "Const", "input": ["^args_0"], "attr": {"dtype": {"type": "DT_INT32"}, "value": {"tensor": {"dtype": "DT_INT32", "tensorShape": {"dim": [{"size": "1"}]}}}}}, {"name": "StatefulPartitionedCall/efficient_sam/StatefulPartitionedCall/image_encoder/blocks.4/attn/qkv/Tensordot/axes", "op": "Const", "input": ["^args_0"], "attr": {"dtype": {"type": "DT_INT32"}, "value": {"tensor": {"dtype": "DT_INT32", "tensorShape": {"dim": [{"size": "1"}]}}}}}, {"name": "StatefulPartitionedCall/efficient_sam/StatefulPartitionedCall/image_encoder/blocks.4/attn/qkv/Tensordot/GatherV2_1/axis", "op": "Const", "input": ["^args_0"], "attr": {"value": {"tensor": {"dtype": "DT_INT32", "tensorShape": {}}}, "dtype": {"type": "DT_INT32"}}}, {"name": "StatefulPartitionedCall/efficient_sam/StatefulPartitionedCall/image_encoder/blocks.4/attn/qkv/Tensordot/Const_1", "op": "Const", "input": ["^args_0"], "attr": {"dtype": {"type": "DT_INT32"}, "value": {"tensor": {"dtype": "DT_INT32", "tensorShape": {"dim": [{"size": "1"}]}}}}}, {"name": "StatefulPartitionedCall/efficient_sam/StatefulPartitionedCall/image_encoder/blocks.4/attn/qkv/Tensordot/ReadVariableOp", "op": "Const", "input": ["^args_0"], "attr": {"dtype": {"type": "DT_FLOAT"}, "value": {"tensor": {"dtype": "DT_FLOAT", "tensorShape": {"dim": [{"size": "192"}, {"size": "576"}]}}}}}, {"name": "StatefulPartitionedCall/efficient_sam/StatefulPartitionedCall/image_encoder/blocks.4/attn/qkv/Tensordot/free", "op": "Const", "input": ["^args_0"], "attr": {"value": {"tensor": {"dtype": "DT_INT32", "tensorShape": {"dim": [{"size": "2"}]}}}, "dtype": {"type": "DT_INT32"}}}, {"name": "StatefulPartitionedCall/efficient_sam/StatefulPartitionedCall/image_encoder/blocks.4/attn/qkv/Tensordot/GatherV2/axis", "op": "Const", "input": ["^args_0"], "attr": {"dtype": {"type": "DT_INT32"}, "value": {"tensor": {"dtype": "DT_INT32", "tensorShape": {}}}}}, {"name": "StatefulPartitionedCall/efficient_sam/StatefulPartitionedCall/image_encoder/blocks.4/attn/qkv/Tensordot/Const_2", "op": "Const", "input": ["^args_0"], "attr": {"dtype": {"type": "DT_INT32"}, "value": {"tensor": {"dtype": "DT_INT32", "tensorShape": {"dim": [{"size": "1"}]}}}}}, {"name": "StatefulPartitionedCall/efficient_sam/StatefulPartitionedCall/image_encoder/blocks.4/attn/qkv/Tensordot/concat_1/axis", "op": "Const", "input": ["^args_0"], "attr": {"value": {"tensor": {"dtype": "DT_INT32", "tensorShape": {}}}, "dtype": {"type": "DT_INT32"}}}, {"name": "StatefulPartitionedCall/efficient_sam/StatefulPartitionedCall/image_encoder/blocks.4/attn/qkv/BiasAdd/ReadVariableOp", "op": "Const", "input": ["^args_0"], "attr": {"dtype": {"type": "DT_FLOAT"}, "value": {"tensor": {"dtype": "DT_FLOAT", "tensorShape": {"dim": [{"size": "576"}]}}}}}, {"name": "StatefulPartitionedCall/efficient_sam/StatefulPartitionedCall/image_encoder/blocks.4/attn/Reshape/shape/1", "op": "Const", "input": ["^args_0"], "attr": {"dtype": {"type": "DT_INT32"}, "value": {"tensor": {"dtype": "DT_INT32", "tensorShape": {}}}}}, {"name": "StatefulPartitionedCall/efficient_sam/StatefulPartitionedCall/image_encoder/blocks.4/attn/Reshape/shape/2", "op": "Const", "input": ["^args_0"], "attr": {"dtype": {"type": "DT_INT32"}, "value": {"tensor": {"dtype": "DT_INT32", "tensorShape": {}}}}}, {"name": "StatefulPartitionedCall/efficient_sam/StatefulPartitionedCall/image_encoder/blocks.4/attn/Reshape/shape/3", "op": "Const", "input": ["^args_0"], "attr": {"value": {"tensor": {"dtype": "DT_INT32", "tensorShape": {}}}, "dtype": {"type": "DT_INT32"}}}, {"name": "StatefulPartitionedCall/efficient_sam/StatefulPartitionedCall/image_encoder/blocks.4/attn/Reshape/shape/4", "op": "Const", "input": ["^args_0"], "attr": {"dtype": {"type": "DT_INT32"}, "value": {"tensor": {"dtype": "DT_INT32", "tensorShape": {}}}}}, {"name": "StatefulPartitionedCall/efficient_sam/StatefulPartitionedCall/image_encoder/blocks.4/attn/transpose/perm", "op": "Const", "input": ["^args_0"], "attr": {"value": {"tensor": {"dtype": "DT_INT32", "tensorShape": {"dim": [{"size": "5"}]}}}, "dtype": {"type": "DT_INT32"}}}, {"name": "StatefulPartitionedCall/efficient_sam/StatefulPartitionedCall/image_encoder/blocks.4/attn/transpose_2/perm", "op": "Const", "input": ["^args_0"], "attr": {"dtype": {"type": "DT_INT32"}, "value": {"tensor": {"dtype": "DT_INT32", "tensorShape": {"dim": [{"size": "4"}]}}}}}, {"name": "StatefulPartitionedCall/efficient_sam/StatefulPartitionedCall/image_encoder/blocks.4/layer_norm1/batchnorm/ReadVariableOp", "op": "Const", "input": ["^args_0"], "attr": {"dtype": {"type": "DT_FLOAT"}, "value": {"tensor": {"dtype": "DT_FLOAT", "tensorShape": {"dim": [{"size": "192"}]}}}}}, {"name": "StatefulPartitionedCall/efficient_sam/StatefulPartitionedCall/image_encoder/blocks.3/mlp/fc2/Tensordot/Const", "op": "Const", "input": ["^args_0"], "attr": {"value": {"tensor": {"dtype": "DT_INT32", "tensorShape": {"dim": [{"size": "1"}]}}}, "dtype": {"type": "DT_INT32"}}}, {"name": "StatefulPartitionedCall/efficient_sam/StatefulPartitionedCall/image_encoder/blocks.3/mlp/fc2/Tensordot/axes", "op": "Const", "input": ["^args_0"], "attr": {"value": {"tensor": {"dtype": "DT_INT32", "tensorShape": {"dim": [{"size": "1"}]}}}, "dtype": {"type": "DT_INT32"}}}, {"name": "StatefulPartitionedCall/efficient_sam/StatefulPartitionedCall/image_encoder/blocks.3/mlp/fc2/Tensordot/GatherV2_1/axis", "op": "Const", "input": ["^args_0"], "attr": {"value": {"tensor": {"dtype": "DT_INT32", "tensorShape": {}}}, "dtype": {"type": "DT_INT32"}}}, {"name": "StatefulPartitionedCall/efficient_sam/StatefulPartitionedCall/image_encoder/blocks.3/mlp/fc2/Tensordot/Const_1", "op": "Const", "input": ["^args_0"], "attr": {"dtype": {"type": "DT_INT32"}, "value": {"tensor": {"dtype": "DT_INT32", "tensorShape": {"dim": [{"size": "1"}]}}}}}, {"name": "StatefulPartitionedCall/efficient_sam/StatefulPartitionedCall/image_encoder/blocks.3/mlp/fc2/Tensordot/ReadVariableOp", "op": "Const", "input": ["^args_0"], "attr": {"value": {"tensor": {"dtype": "DT_FLOAT", "tensorShape": {"dim": [{"size": "768"}, {"size": "192"}]}}}, "dtype": {"type": "DT_FLOAT"}}}, {"name": "StatefulPartitionedCall/efficient_sam/StatefulPartitionedCall/image_encoder/blocks.3/mlp/Gelu/mul/x", "op": "Const", "input": ["^args_0"], "attr": {"dtype": {"type": "DT_FLOAT"}, "value": {"tensor": {"dtype": "DT_FLOAT", "tensorShape": {}}}}}, {"name": "StatefulPartitionedCall/efficient_sam/StatefulPartitionedCall/image_encoder/blocks.3/mlp/Gelu/add/x", "op": "Const", "input": ["^args_0"], "attr": {"value": {"tensor": {"dtype": "DT_FLOAT", "tensorShape": {}}}, "dtype": {"type": "DT_FLOAT"}}}, {"name": "StatefulPartitionedCall/efficient_sam/StatefulPartitionedCall/image_encoder/blocks.3/mlp/fc1/Tensordot/Const", "op": "Const", "input": ["^args_0"], "attr": {"value": {"tensor": {"dtype": "DT_INT32", "tensorShape": {"dim": [{"size": "1"}]}}}, "dtype": {"type": "DT_INT32"}}}, {"name": "StatefulPartitionedCall/efficient_sam/StatefulPartitionedCall/image_encoder/blocks.3/mlp/fc1/Tensordot/axes", "op": "Const", "input": ["^args_0"], "attr": {"dtype": {"type": "DT_INT32"}, "value": {"tensor": {"dtype": "DT_INT32", "tensorShape": {"dim": [{"size": "1"}]}}}}}, {"name": "StatefulPartitionedCall/efficient_sam/StatefulPartitionedCall/image_encoder/blocks.3/mlp/fc1/Tensordot/GatherV2_1/axis", "op": "Const", "input": ["^args_0"], "attr": {"value": {"tensor": {"dtype": "DT_INT32", "tensorShape": {}}}, "dtype": {"type": "DT_INT32"}}}, {"name": "StatefulPartitionedCall/efficient_sam/StatefulPartitionedCall/image_encoder/blocks.3/mlp/fc1/Tensordot/Const_1", "op": "Const", "input": ["^args_0"], "attr": {"value": {"tensor": {"dtype": "DT_INT32", "tensorShape": {"dim": [{"size": "1"}]}}}, "dtype": {"type": "DT_INT32"}}}, {"name": "StatefulPartitionedCall/efficient_sam/StatefulPartitionedCall/image_encoder/blocks.3/mlp/fc1/Tensordot/ReadVariableOp", "op": "Const", "input": ["^args_0"], "attr": {"value": {"tensor": {"dtype": "DT_FLOAT", "tensorShape": {"dim": [{"size": "192"}, {"size": "768"}]}}}, "dtype": {"type": "DT_FLOAT"}}}, {"name": "StatefulPartitionedCall/efficient_sam/StatefulPartitionedCall/image_encoder/blocks.3/layer_norm2/batchnorm/ReadVariableOp", "op": "Const", "input": ["^args_0"], "attr": {"dtype": {"type": "DT_FLOAT"}, "value": {"tensor": {"dtype": "DT_FLOAT", "tensorShape": {"dim": [{"size": "192"}]}}}}}, {"name": "StatefulPartitionedCall/efficient_sam/StatefulPartitionedCall/image_encoder/blocks.3/attn/proj/Tensordot/Const", "op": "Const", "input": ["^args_0"], "attr": {"dtype": {"type": "DT_INT32"}, "value": {"tensor": {"dtype": "DT_INT32", "tensorShape": {"dim": [{"size": "1"}]}}}}}, {"name": "StatefulPartitionedCall/efficient_sam/StatefulPartitionedCall/image_encoder/blocks.3/attn/proj/Tensordot/axes", "op": "Const", "input": ["^args_0"], "attr": {"dtype": {"type": "DT_INT32"}, "value": {"tensor": {"dtype": "DT_INT32", "tensorShape": {"dim": [{"size": "1"}]}}}}}, {"name": "StatefulPartitionedCall/efficient_sam/StatefulPartitionedCall/image_encoder/blocks.3/attn/proj/Tensordot/GatherV2_1/axis", "op": "Const", "input": ["^args_0"], "attr": {"value": {"tensor": {"dtype": "DT_INT32", "tensorShape": {}}}, "dtype": {"type": "DT_INT32"}}}, {"name": "StatefulPartitionedCall/efficient_sam/StatefulPartitionedCall/image_encoder/blocks.3/attn/proj/Tensordot/Const_1", "op": "Const", "input": ["^args_0"], "attr": {"dtype": {"type": "DT_INT32"}, "value": {"tensor": {"dtype": "DT_INT32", "tensorShape": {"dim": [{"size": "1"}]}}}}}, {"name": "StatefulPartitionedCall/efficient_sam/StatefulPartitionedCall/image_encoder/blocks.3/attn/proj/Tensordot/ReadVariableOp", "op": "Const", "input": ["^args_0"], "attr": {"dtype": {"type": "DT_FLOAT"}, "value": {"tensor": {"dtype": "DT_FLOAT", "tensorShape": {"dim": [{"size": "192"}, {"size": "192"}]}}}}}, {"name": "StatefulPartitionedCall/efficient_sam/StatefulPartitionedCall/image_encoder/blocks.3/attn/mul/y", "op": "Const", "input": ["^args_0"], "attr": {"value": {"tensor": {"dtype": "DT_FLOAT", "tensorShape": {}}}, "dtype": {"type": "DT_FLOAT"}}}, {"name": "StatefulPartitionedCall/efficient_sam/StatefulPartitionedCall/image_encoder/blocks.3/attn/qkv/Tensordot/Const", "op": "Const", "input": ["^args_0"], "attr": {"dtype": {"type": "DT_INT32"}, "value": {"tensor": {"dtype": "DT_INT32", "tensorShape": {"dim": [{"size": "1"}]}}}}}, {"name": "StatefulPartitionedCall/efficient_sam/StatefulPartitionedCall/image_encoder/blocks.3/attn/qkv/Tensordot/axes", "op": "Const", "input": ["^args_0"], "attr": {"dtype": {"type": "DT_INT32"}, "value": {"tensor": {"dtype": "DT_INT32", "tensorShape": {"dim": [{"size": "1"}]}}}}}, {"name": "StatefulPartitionedCall/efficient_sam/StatefulPartitionedCall/image_encoder/blocks.3/attn/qkv/Tensordot/GatherV2_1/axis", "op": "Const", "input": ["^args_0"], "attr": {"value": {"tensor": {"dtype": "DT_INT32", "tensorShape": {}}}, "dtype": {"type": "DT_INT32"}}}, {"name": "StatefulPartitionedCall/efficient_sam/StatefulPartitionedCall/image_encoder/blocks.3/attn/qkv/Tensordot/Const_1", "op": "Const", "input": ["^args_0"], "attr": {"value": {"tensor": {"dtype": "DT_INT32", "tensorShape": {"dim": [{"size": "1"}]}}}, "dtype": {"type": "DT_INT32"}}}, {"name": "StatefulPartitionedCall/efficient_sam/StatefulPartitionedCall/image_encoder/blocks.3/attn/qkv/Tensordot/ReadVariableOp", "op": "Const", "input": ["^args_0"], "attr": {"value": {"tensor": {"dtype": "DT_FLOAT", "tensorShape": {"dim": [{"size": "192"}, {"size": "576"}]}}}, "dtype": {"type": "DT_FLOAT"}}}, {"name": "StatefulPartitionedCall/efficient_sam/StatefulPartitionedCall/image_encoder/blocks.3/attn/qkv/Tensordot/free", "op": "Const", "input": ["^args_0"], "attr": {"value": {"tensor": {"dtype": "DT_INT32", "tensorShape": {"dim": [{"size": "2"}]}}}, "dtype": {"type": "DT_INT32"}}}, {"name": "StatefulPartitionedCall/efficient_sam/StatefulPartitionedCall/image_encoder/blocks.3/attn/qkv/Tensordot/GatherV2/axis", "op": "Const", "input": ["^args_0"], "attr": {"dtype": {"type": "DT_INT32"}, "value": {"tensor": {"dtype": "DT_INT32", "tensorShape": {}}}}}, {"name": "StatefulPartitionedCall/efficient_sam/StatefulPartitionedCall/image_encoder/blocks.3/attn/qkv/Tensordot/Const_2", "op": "Const", "input": ["^args_0"], "attr": {"dtype": {"type": "DT_INT32"}, "value": {"tensor": {"dtype": "DT_INT32", "tensorShape": {"dim": [{"size": "1"}]}}}}}, {"name": "StatefulPartitionedCall/efficient_sam/StatefulPartitionedCall/image_encoder/blocks.3/attn/qkv/Tensordot/concat_1/axis", "op": "Const", "input": ["^args_0"], "attr": {"value": {"tensor": {"dtype": "DT_INT32", "tensorShape": {}}}, "dtype": {"type": "DT_INT32"}}}, {"name": "StatefulPartitionedCall/efficient_sam/StatefulPartitionedCall/image_encoder/blocks.3/attn/qkv/BiasAdd/ReadVariableOp", "op": "Const", "input": ["^args_0"], "attr": {"value": {"tensor": {"dtype": "DT_FLOAT", "tensorShape": {"dim": [{"size": "576"}]}}}, "dtype": {"type": "DT_FLOAT"}}}, {"name": "StatefulPartitionedCall/efficient_sam/StatefulPartitionedCall/image_encoder/blocks.3/attn/Reshape/shape/1", "op": "Const", "input": ["^args_0"], "attr": {"dtype": {"type": "DT_INT32"}, "value": {"tensor": {"dtype": "DT_INT32", "tensorShape": {}}}}}, {"name": "StatefulPartitionedCall/efficient_sam/StatefulPartitionedCall/image_encoder/blocks.3/attn/Reshape/shape/2", "op": "Const", "input": ["^args_0"], "attr": {"dtype": {"type": "DT_INT32"}, "value": {"tensor": {"dtype": "DT_INT32", "tensorShape": {}}}}}, {"name": "StatefulPartitionedCall/efficient_sam/StatefulPartitionedCall/image_encoder/blocks.3/attn/Reshape/shape/3", "op": "Const", "input": ["^args_0"], "attr": {"dtype": {"type": "DT_INT32"}, "value": {"tensor": {"dtype": "DT_INT32", "tensorShape": {}}}}}, {"name": "StatefulPartitionedCall/efficient_sam/StatefulPartitionedCall/image_encoder/blocks.3/attn/Reshape/shape/4", "op": "Const", "input": ["^args_0"], "attr": {"value": {"tensor": {"dtype": "DT_INT32", "tensorShape": {}}}, "dtype": {"type": "DT_INT32"}}}, {"name": "StatefulPartitionedCall/efficient_sam/StatefulPartitionedCall/image_encoder/blocks.3/attn/transpose/perm", "op": "Const", "input": ["^args_0"], "attr": {"dtype": {"type": "DT_INT32"}, "value": {"tensor": {"dtype": "DT_INT32", "tensorShape": {"dim": [{"size": "5"}]}}}}}, {"name": "StatefulPartitionedCall/efficient_sam/StatefulPartitionedCall/image_encoder/blocks.3/attn/transpose_2/perm", "op": "Const", "input": ["^args_0"], "attr": {"dtype": {"type": "DT_INT32"}, "value": {"tensor": {"dtype": "DT_INT32", "tensorShape": {"dim": [{"size": "4"}]}}}}}, {"name": "StatefulPartitionedCall/efficient_sam/StatefulPartitionedCall/image_encoder/blocks.3/layer_norm1/batchnorm/ReadVariableOp", "op": "Const", "input": ["^args_0"], "attr": {"value": {"tensor": {"dtype": "DT_FLOAT", "tensorShape": {"dim": [{"size": "192"}]}}}, "dtype": {"type": "DT_FLOAT"}}}, {"name": "StatefulPartitionedCall/efficient_sam/StatefulPartitionedCall/image_encoder/blocks.2/mlp/fc2/Tensordot/Const", "op": "Const", "input": ["^args_0"], "attr": {"dtype": {"type": "DT_INT32"}, "value": {"tensor": {"dtype": "DT_INT32", "tensorShape": {"dim": [{"size": "1"}]}}}}}, {"name": "StatefulPartitionedCall/efficient_sam/StatefulPartitionedCall/image_encoder/blocks.2/mlp/fc2/Tensordot/axes", "op": "Const", "input": ["^args_0"], "attr": {"dtype": {"type": "DT_INT32"}, "value": {"tensor": {"dtype": "DT_INT32", "tensorShape": {"dim": [{"size": "1"}]}}}}}, {"name": "StatefulPartitionedCall/efficient_sam/StatefulPartitionedCall/image_encoder/blocks.2/mlp/fc2/Tensordot/GatherV2_1/axis", "op": "Const", "input": ["^args_0"], "attr": {"value": {"tensor": {"dtype": "DT_INT32", "tensorShape": {}}}, "dtype": {"type": "DT_INT32"}}}, {"name": "StatefulPartitionedCall/efficient_sam/StatefulPartitionedCall/image_encoder/blocks.2/mlp/fc2/Tensordot/Const_1", "op": "Const", "input": ["^args_0"], "attr": {"value": {"tensor": {"dtype": "DT_INT32", "tensorShape": {"dim": [{"size": "1"}]}}}, "dtype": {"type": "DT_INT32"}}}, {"name": "StatefulPartitionedCall/efficient_sam/StatefulPartitionedCall/image_encoder/blocks.2/mlp/fc2/Tensordot/ReadVariableOp", "op": "Const", "input": ["^args_0"], "attr": {"dtype": {"type": "DT_FLOAT"}, "value": {"tensor": {"dtype": "DT_FLOAT", "tensorShape": {"dim": [{"size": "768"}, {"size": "192"}]}}}}}, {"name": "StatefulPartitionedCall/efficient_sam/StatefulPartitionedCall/image_encoder/blocks.2/mlp/Gelu/mul/x", "op": "Const", "input": ["^args_0"], "attr": {"value": {"tensor": {"dtype": "DT_FLOAT", "tensorShape": {}}}, "dtype": {"type": "DT_FLOAT"}}}, {"name": "StatefulPartitionedCall/efficient_sam/StatefulPartitionedCall/image_encoder/blocks.2/mlp/Gelu/add/x", "op": "Const", "input": ["^args_0"], "attr": {"dtype": {"type": "DT_FLOAT"}, "value": {"tensor": {"dtype": "DT_FLOAT", "tensorShape": {}}}}}, {"name": "StatefulPartitionedCall/efficient_sam/StatefulPartitionedCall/image_encoder/blocks.2/mlp/fc1/Tensordot/Const", "op": "Const", "input": ["^args_0"], "attr": {"value": {"tensor": {"dtype": "DT_INT32", "tensorShape": {"dim": [{"size": "1"}]}}}, "dtype": {"type": "DT_INT32"}}}, {"name": "StatefulPartitionedCall/efficient_sam/StatefulPartitionedCall/image_encoder/blocks.2/mlp/fc1/Tensordot/axes", "op": "Const", "input": ["^args_0"], "attr": {"dtype": {"type": "DT_INT32"}, "value": {"tensor": {"dtype": "DT_INT32", "tensorShape": {"dim": [{"size": "1"}]}}}}}, {"name": "StatefulPartitionedCall/efficient_sam/StatefulPartitionedCall/image_encoder/blocks.2/mlp/fc1/Tensordot/GatherV2_1/axis", "op": "Const", "input": ["^args_0"], "attr": {"value": {"tensor": {"dtype": "DT_INT32", "tensorShape": {}}}, "dtype": {"type": "DT_INT32"}}}, {"name": "StatefulPartitionedCall/efficient_sam/StatefulPartitionedCall/image_encoder/blocks.2/mlp/fc1/Tensordot/Const_1", "op": "Const", "input": ["^args_0"], "attr": {"value": {"tensor": {"dtype": "DT_INT32", "tensorShape": {"dim": [{"size": "1"}]}}}, "dtype": {"type": "DT_INT32"}}}, {"name": "StatefulPartitionedCall/efficient_sam/StatefulPartitionedCall/image_encoder/blocks.2/mlp/fc1/Tensordot/ReadVariableOp", "op": "Const", "input": ["^args_0"], "attr": {"dtype": {"type": "DT_FLOAT"}, "value": {"tensor": {"dtype": "DT_FLOAT", "tensorShape": {"dim": [{"size": "192"}, {"size": "768"}]}}}}}, {"name": "StatefulPartitionedCall/efficient_sam/StatefulPartitionedCall/image_encoder/blocks.2/layer_norm2/batchnorm/ReadVariableOp", "op": "Const", "input": ["^args_0"], "attr": {"dtype": {"type": "DT_FLOAT"}, "value": {"tensor": {"dtype": "DT_FLOAT", "tensorShape": {"dim": [{"size": "192"}]}}}}}, {"name": "StatefulPartitionedCall/efficient_sam/StatefulPartitionedCall/image_encoder/blocks.2/attn/proj/Tensordot/Const", "op": "Const", "input": ["^args_0"], "attr": {"dtype": {"type": "DT_INT32"}, "value": {"tensor": {"dtype": "DT_INT32", "tensorShape": {"dim": [{"size": "1"}]}}}}}, {"name": "StatefulPartitionedCall/efficient_sam/StatefulPartitionedCall/image_encoder/blocks.2/attn/proj/Tensordot/axes", "op": "Const", "input": ["^args_0"], "attr": {"dtype": {"type": "DT_INT32"}, "value": {"tensor": {"dtype": "DT_INT32", "tensorShape": {"dim": [{"size": "1"}]}}}}}, {"name": "StatefulPartitionedCall/efficient_sam/StatefulPartitionedCall/image_encoder/blocks.2/attn/proj/Tensordot/GatherV2_1/axis", "op": "Const", "input": ["^args_0"], "attr": {"value": {"tensor": {"dtype": "DT_INT32", "tensorShape": {}}}, "dtype": {"type": "DT_INT32"}}}, {"name": "StatefulPartitionedCall/efficient_sam/StatefulPartitionedCall/image_encoder/blocks.2/attn/proj/Tensordot/Const_1", "op": "Const", "input": ["^args_0"], "attr": {"value": {"tensor": {"dtype": "DT_INT32", "tensorShape": {"dim": [{"size": "1"}]}}}, "dtype": {"type": "DT_INT32"}}}, {"name": "StatefulPartitionedCall/efficient_sam/StatefulPartitionedCall/image_encoder/blocks.2/attn/proj/Tensordot/ReadVariableOp", "op": "Const", "input": ["^args_0"], "attr": {"value": {"tensor": {"dtype": "DT_FLOAT", "tensorShape": {"dim": [{"size": "192"}, {"size": "192"}]}}}, "dtype": {"type": "DT_FLOAT"}}}, {"name": "StatefulPartitionedCall/efficient_sam/StatefulPartitionedCall/image_encoder/blocks.2/attn/mul/y", "op": "Const", "input": ["^args_0"], "attr": {"value": {"tensor": {"dtype": "DT_FLOAT", "tensorShape": {}}}, "dtype": {"type": "DT_FLOAT"}}}, {"name": "StatefulPartitionedCall/efficient_sam/StatefulPartitionedCall/image_encoder/blocks.2/attn/qkv/Tensordot/Const", "op": "Const", "input": ["^args_0"], "attr": {"value": {"tensor": {"dtype": "DT_INT32", "tensorShape": {"dim": [{"size": "1"}]}}}, "dtype": {"type": "DT_INT32"}}}, {"name": "StatefulPartitionedCall/efficient_sam/StatefulPartitionedCall/image_encoder/blocks.2/attn/qkv/Tensordot/axes", "op": "Const", "input": ["^args_0"], "attr": {"dtype": {"type": "DT_INT32"}, "value": {"tensor": {"dtype": "DT_INT32", "tensorShape": {"dim": [{"size": "1"}]}}}}}, {"name": "StatefulPartitionedCall/efficient_sam/StatefulPartitionedCall/image_encoder/blocks.2/attn/qkv/Tensordot/GatherV2_1/axis", "op": "Const", "input": ["^args_0"], "attr": {"value": {"tensor": {"dtype": "DT_INT32", "tensorShape": {}}}, "dtype": {"type": "DT_INT32"}}}, {"name": "StatefulPartitionedCall/efficient_sam/StatefulPartitionedCall/image_encoder/blocks.2/attn/qkv/Tensordot/Const_1", "op": "Const", "input": ["^args_0"], "attr": {"value": {"tensor": {"dtype": "DT_INT32", "tensorShape": {"dim": [{"size": "1"}]}}}, "dtype": {"type": "DT_INT32"}}}, {"name": "StatefulPartitionedCall/efficient_sam/StatefulPartitionedCall/image_encoder/blocks.2/attn/qkv/Tensordot/ReadVariableOp", "op": "Const", "input": ["^args_0"], "attr": {"value": {"tensor": {"dtype": "DT_FLOAT", "tensorShape": {"dim": [{"size": "192"}, {"size": "576"}]}}}, "dtype": {"type": "DT_FLOAT"}}}, {"name": "StatefulPartitionedCall/efficient_sam/StatefulPartitionedCall/image_encoder/blocks.2/attn/qkv/Tensordot/free", "op": "Const", "input": ["^args_0"], "attr": {"value": {"tensor": {"dtype": "DT_INT32", "tensorShape": {"dim": [{"size": "2"}]}}}, "dtype": {"type": "DT_INT32"}}}, {"name": "StatefulPartitionedCall/efficient_sam/StatefulPartitionedCall/image_encoder/blocks.2/attn/qkv/Tensordot/GatherV2/axis", "op": "Const", "input": ["^args_0"], "attr": {"dtype": {"type": "DT_INT32"}, "value": {"tensor": {"dtype": "DT_INT32", "tensorShape": {}}}}}, {"name": "StatefulPartitionedCall/efficient_sam/StatefulPartitionedCall/image_encoder/blocks.2/attn/qkv/Tensordot/Const_2", "op": "Const", "input": ["^args_0"], "attr": {"dtype": {"type": "DT_INT32"}, "value": {"tensor": {"dtype": "DT_INT32", "tensorShape": {"dim": [{"size": "1"}]}}}}}, {"name": "StatefulPartitionedCall/efficient_sam/StatefulPartitionedCall/image_encoder/blocks.2/attn/qkv/Tensordot/concat_1/axis", "op": "Const", "input": ["^args_0"], "attr": {"value": {"tensor": {"dtype": "DT_INT32", "tensorShape": {}}}, "dtype": {"type": "DT_INT32"}}}, {"name": "StatefulPartitionedCall/efficient_sam/StatefulPartitionedCall/image_encoder/blocks.2/attn/qkv/BiasAdd/ReadVariableOp", "op": "Const", "input": ["^args_0"], "attr": {"value": {"tensor": {"dtype": "DT_FLOAT", "tensorShape": {"dim": [{"size": "576"}]}}}, "dtype": {"type": "DT_FLOAT"}}}, {"name": "StatefulPartitionedCall/efficient_sam/StatefulPartitionedCall/image_encoder/blocks.2/attn/Reshape/shape/1", "op": "Const", "input": ["^args_0"], "attr": {"dtype": {"type": "DT_INT32"}, "value": {"tensor": {"dtype": "DT_INT32", "tensorShape": {}}}}}, {"name": "StatefulPartitionedCall/efficient_sam/StatefulPartitionedCall/image_encoder/blocks.2/attn/Reshape/shape/2", "op": "Const", "input": ["^args_0"], "attr": {"value": {"tensor": {"dtype": "DT_INT32", "tensorShape": {}}}, "dtype": {"type": "DT_INT32"}}}, {"name": "StatefulPartitionedCall/efficient_sam/StatefulPartitionedCall/image_encoder/blocks.2/attn/Reshape/shape/3", "op": "Const", "input": ["^args_0"], "attr": {"value": {"tensor": {"dtype": "DT_INT32", "tensorShape": {}}}, "dtype": {"type": "DT_INT32"}}}, {"name": "StatefulPartitionedCall/efficient_sam/StatefulPartitionedCall/image_encoder/blocks.2/attn/Reshape/shape/4", "op": "Const", "input": ["^args_0"], "attr": {"value": {"tensor": {"dtype": "DT_INT32", "tensorShape": {}}}, "dtype": {"type": "DT_INT32"}}}, {"name": "StatefulPartitionedCall/efficient_sam/StatefulPartitionedCall/image_encoder/blocks.2/attn/transpose/perm", "op": "Const", "input": ["^args_0"], "attr": {"value": {"tensor": {"dtype": "DT_INT32", "tensorShape": {"dim": [{"size": "5"}]}}}, "dtype": {"type": "DT_INT32"}}}, {"name": "StatefulPartitionedCall/efficient_sam/StatefulPartitionedCall/image_encoder/blocks.2/attn/transpose_2/perm", "op": "Const", "input": ["^args_0"], "attr": {"dtype": {"type": "DT_INT32"}, "value": {"tensor": {"dtype": "DT_INT32", "tensorShape": {"dim": [{"size": "4"}]}}}}}, {"name": "StatefulPartitionedCall/efficient_sam/StatefulPartitionedCall/image_encoder/blocks.2/layer_norm1/batchnorm/ReadVariableOp", "op": "Const", "input": ["^args_0"], "attr": {"value": {"tensor": {"dtype": "DT_FLOAT", "tensorShape": {"dim": [{"size": "192"}]}}}, "dtype": {"type": "DT_FLOAT"}}}, {"name": "StatefulPartitionedCall/efficient_sam/StatefulPartitionedCall/image_encoder/blocks.1/mlp/fc2/Tensordot/Const", "op": "Const", "input": ["^args_0"], "attr": {"dtype": {"type": "DT_INT32"}, "value": {"tensor": {"dtype": "DT_INT32", "tensorShape": {"dim": [{"size": "1"}]}}}}}, {"name": "StatefulPartitionedCall/efficient_sam/StatefulPartitionedCall/image_encoder/blocks.1/mlp/fc2/Tensordot/axes", "op": "Const", "input": ["^args_0"], "attr": {"dtype": {"type": "DT_INT32"}, "value": {"tensor": {"dtype": "DT_INT32", "tensorShape": {"dim": [{"size": "1"}]}}}}}, {"name": "StatefulPartitionedCall/efficient_sam/StatefulPartitionedCall/image_encoder/blocks.1/mlp/fc2/Tensordot/GatherV2_1/axis", "op": "Const", "input": ["^args_0"], "attr": {"dtype": {"type": "DT_INT32"}, "value": {"tensor": {"dtype": "DT_INT32", "tensorShape": {}}}}}, {"name": "StatefulPartitionedCall/efficient_sam/StatefulPartitionedCall/image_encoder/blocks.1/mlp/fc2/Tensordot/Const_1", "op": "Const", "input": ["^args_0"], "attr": {"value": {"tensor": {"dtype": "DT_INT32", "tensorShape": {"dim": [{"size": "1"}]}}}, "dtype": {"type": "DT_INT32"}}}, {"name": "StatefulPartitionedCall/efficient_sam/StatefulPartitionedCall/image_encoder/blocks.1/mlp/fc2/Tensordot/ReadVariableOp", "op": "Const", "input": ["^args_0"], "attr": {"dtype": {"type": "DT_FLOAT"}, "value": {"tensor": {"dtype": "DT_FLOAT", "tensorShape": {"dim": [{"size": "768"}, {"size": "192"}]}}}}}, {"name": "StatefulPartitionedCall/efficient_sam/StatefulPartitionedCall/image_encoder/blocks.1/mlp/Gelu/mul/x", "op": "Const", "input": ["^args_0"], "attr": {"value": {"tensor": {"dtype": "DT_FLOAT", "tensorShape": {}}}, "dtype": {"type": "DT_FLOAT"}}}, {"name": "StatefulPartitionedCall/efficient_sam/StatefulPartitionedCall/image_encoder/blocks.1/mlp/Gelu/add/x", "op": "Const", "input": ["^args_0"], "attr": {"value": {"tensor": {"dtype": "DT_FLOAT", "tensorShape": {}}}, "dtype": {"type": "DT_FLOAT"}}}, {"name": "StatefulPartitionedCall/efficient_sam/StatefulPartitionedCall/image_encoder/blocks.1/mlp/fc1/Tensordot/Const", "op": "Const", "input": ["^args_0"], "attr": {"dtype": {"type": "DT_INT32"}, "value": {"tensor": {"dtype": "DT_INT32", "tensorShape": {"dim": [{"size": "1"}]}}}}}, {"name": "StatefulPartitionedCall/efficient_sam/StatefulPartitionedCall/image_encoder/blocks.1/mlp/fc1/Tensordot/axes", "op": "Const", "input": ["^args_0"], "attr": {"value": {"tensor": {"dtype": "DT_INT32", "tensorShape": {"dim": [{"size": "1"}]}}}, "dtype": {"type": "DT_INT32"}}}, {"name": "StatefulPartitionedCall/efficient_sam/StatefulPartitionedCall/image_encoder/blocks.1/mlp/fc1/Tensordot/GatherV2_1/axis", "op": "Const", "input": ["^args_0"], "attr": {"value": {"tensor": {"dtype": "DT_INT32", "tensorShape": {}}}, "dtype": {"type": "DT_INT32"}}}, {"name": "StatefulPartitionedCall/efficient_sam/StatefulPartitionedCall/image_encoder/blocks.1/mlp/fc1/Tensordot/Const_1", "op": "Const", "input": ["^args_0"], "attr": {"value": {"tensor": {"dtype": "DT_INT32", "tensorShape": {"dim": [{"size": "1"}]}}}, "dtype": {"type": "DT_INT32"}}}, {"name": "StatefulPartitionedCall/efficient_sam/StatefulPartitionedCall/image_encoder/blocks.1/mlp/fc1/Tensordot/ReadVariableOp", "op": "Const", "input": ["^args_0"], "attr": {"value": {"tensor": {"dtype": "DT_FLOAT", "tensorShape": {"dim": [{"size": "192"}, {"size": "768"}]}}}, "dtype": {"type": "DT_FLOAT"}}}, {"name": "StatefulPartitionedCall/efficient_sam/StatefulPartitionedCall/image_encoder/blocks.1/layer_norm2/batchnorm/ReadVariableOp", "op": "Const", "input": ["^args_0"], "attr": {"value": {"tensor": {"dtype": "DT_FLOAT", "tensorShape": {"dim": [{"size": "192"}]}}}, "dtype": {"type": "DT_FLOAT"}}}, {"name": "StatefulPartitionedCall/efficient_sam/StatefulPartitionedCall/image_encoder/blocks.1/attn/proj/Tensordot/Const", "op": "Const", "input": ["^args_0"], "attr": {"dtype": {"type": "DT_INT32"}, "value": {"tensor": {"dtype": "DT_INT32", "tensorShape": {"dim": [{"size": "1"}]}}}}}, {"name": "StatefulPartitionedCall/efficient_sam/StatefulPartitionedCall/image_encoder/blocks.1/attn/proj/Tensordot/axes", "op": "Const", "input": ["^args_0"], "attr": {"dtype": {"type": "DT_INT32"}, "value": {"tensor": {"dtype": "DT_INT32", "tensorShape": {"dim": [{"size": "1"}]}}}}}, {"name": "StatefulPartitionedCall/efficient_sam/StatefulPartitionedCall/image_encoder/blocks.1/attn/proj/Tensordot/GatherV2_1/axis", "op": "Const", "input": ["^args_0"], "attr": {"value": {"tensor": {"dtype": "DT_INT32", "tensorShape": {}}}, "dtype": {"type": "DT_INT32"}}}, {"name": "StatefulPartitionedCall/efficient_sam/StatefulPartitionedCall/image_encoder/blocks.1/attn/proj/Tensordot/Const_1", "op": "Const", "input": ["^args_0"], "attr": {"value": {"tensor": {"dtype": "DT_INT32", "tensorShape": {"dim": [{"size": "1"}]}}}, "dtype": {"type": "DT_INT32"}}}, {"name": "StatefulPartitionedCall/efficient_sam/StatefulPartitionedCall/image_encoder/blocks.1/attn/proj/Tensordot/ReadVariableOp", "op": "Const", "input": ["^args_0"], "attr": {"value": {"tensor": {"dtype": "DT_FLOAT", "tensorShape": {"dim": [{"size": "192"}, {"size": "192"}]}}}, "dtype": {"type": "DT_FLOAT"}}}, {"name": "StatefulPartitionedCall/efficient_sam/StatefulPartitionedCall/image_encoder/blocks.1/attn/mul/y", "op": "Const", "input": ["^args_0"], "attr": {"dtype": {"type": "DT_FLOAT"}, "value": {"tensor": {"dtype": "DT_FLOAT", "tensorShape": {}}}}}, {"name": "StatefulPartitionedCall/efficient_sam/StatefulPartitionedCall/image_encoder/blocks.1/attn/qkv/Tensordot/Const", "op": "Const", "input": ["^args_0"], "attr": {"value": {"tensor": {"dtype": "DT_INT32", "tensorShape": {"dim": [{"size": "1"}]}}}, "dtype": {"type": "DT_INT32"}}}, {"name": "StatefulPartitionedCall/efficient_sam/StatefulPartitionedCall/image_encoder/blocks.1/attn/qkv/Tensordot/axes", "op": "Const", "input": ["^args_0"], "attr": {"value": {"tensor": {"dtype": "DT_INT32", "tensorShape": {"dim": [{"size": "1"}]}}}, "dtype": {"type": "DT_INT32"}}}, {"name": "StatefulPartitionedCall/efficient_sam/StatefulPartitionedCall/image_encoder/blocks.1/attn/qkv/Tensordot/GatherV2_1/axis", "op": "Const", "input": ["^args_0"], "attr": {"value": {"tensor": {"dtype": "DT_INT32", "tensorShape": {}}}, "dtype": {"type": "DT_INT32"}}}, {"name": "StatefulPartitionedCall/efficient_sam/StatefulPartitionedCall/image_encoder/blocks.1/attn/qkv/Tensordot/Const_1", "op": "Const", "input": ["^args_0"], "attr": {"dtype": {"type": "DT_INT32"}, "value": {"tensor": {"dtype": "DT_INT32", "tensorShape": {"dim": [{"size": "1"}]}}}}}, {"name": "StatefulPartitionedCall/efficient_sam/StatefulPartitionedCall/image_encoder/blocks.1/attn/qkv/Tensordot/ReadVariableOp", "op": "Const", "input": ["^args_0"], "attr": {"dtype": {"type": "DT_FLOAT"}, "value": {"tensor": {"dtype": "DT_FLOAT", "tensorShape": {"dim": [{"size": "192"}, {"size": "576"}]}}}}}, {"name": "StatefulPartitionedCall/efficient_sam/StatefulPartitionedCall/image_encoder/blocks.1/attn/qkv/Tensordot/free", "op": "Const", "input": ["^args_0"], "attr": {"dtype": {"type": "DT_INT32"}, "value": {"tensor": {"dtype": "DT_INT32", "tensorShape": {"dim": [{"size": "2"}]}}}}}, {"name": "StatefulPartitionedCall/efficient_sam/StatefulPartitionedCall/image_encoder/blocks.1/attn/qkv/Tensordot/GatherV2/axis", "op": "Const", "input": ["^args_0"], "attr": {"dtype": {"type": "DT_INT32"}, "value": {"tensor": {"dtype": "DT_INT32", "tensorShape": {}}}}}, {"name": "StatefulPartitionedCall/efficient_sam/StatefulPartitionedCall/image_encoder/blocks.1/attn/qkv/Tensordot/Const_2", "op": "Const", "input": ["^args_0"], "attr": {"dtype": {"type": "DT_INT32"}, "value": {"tensor": {"dtype": "DT_INT32", "tensorShape": {"dim": [{"size": "1"}]}}}}}, {"name": "StatefulPartitionedCall/efficient_sam/StatefulPartitionedCall/image_encoder/blocks.1/attn/qkv/Tensordot/concat_1/axis", "op": "Const", "input": ["^args_0"], "attr": {"dtype": {"type": "DT_INT32"}, "value": {"tensor": {"dtype": "DT_INT32", "tensorShape": {}}}}}, {"name": "StatefulPartitionedCall/efficient_sam/StatefulPartitionedCall/image_encoder/blocks.1/attn/qkv/BiasAdd/ReadVariableOp", "op": "Const", "input": ["^args_0"], "attr": {"dtype": {"type": "DT_FLOAT"}, "value": {"tensor": {"dtype": "DT_FLOAT", "tensorShape": {"dim": [{"size": "576"}]}}}}}, {"name": "StatefulPartitionedCall/efficient_sam/StatefulPartitionedCall/image_encoder/blocks.1/attn/Reshape/shape/1", "op": "Const", "input": ["^args_0"], "attr": {"dtype": {"type": "DT_INT32"}, "value": {"tensor": {"dtype": "DT_INT32", "tensorShape": {}}}}}, {"name": "StatefulPartitionedCall/efficient_sam/StatefulPartitionedCall/image_encoder/blocks.1/attn/Reshape/shape/2", "op": "Const", "input": ["^args_0"], "attr": {"dtype": {"type": "DT_INT32"}, "value": {"tensor": {"dtype": "DT_INT32", "tensorShape": {}}}}}, {"name": "StatefulPartitionedCall/efficient_sam/StatefulPartitionedCall/image_encoder/blocks.1/attn/Reshape/shape/3", "op": "Const", "input": ["^args_0"], "attr": {"value": {"tensor": {"dtype": "DT_INT32", "tensorShape": {}}}, "dtype": {"type": "DT_INT32"}}}, {"name": "StatefulPartitionedCall/efficient_sam/StatefulPartitionedCall/image_encoder/blocks.1/attn/Reshape/shape/4", "op": "Const", "input": ["^args_0"], "attr": {"dtype": {"type": "DT_INT32"}, "value": {"tensor": {"dtype": "DT_INT32", "tensorShape": {}}}}}, {"name": "StatefulPartitionedCall/efficient_sam/StatefulPartitionedCall/image_encoder/blocks.1/attn/transpose/perm", "op": "Const", "input": ["^args_0"], "attr": {"value": {"tensor": {"dtype": "DT_INT32", "tensorShape": {"dim": [{"size": "5"}]}}}, "dtype": {"type": "DT_INT32"}}}, {"name": "StatefulPartitionedCall/efficient_sam/StatefulPartitionedCall/image_encoder/blocks.1/attn/transpose_2/perm", "op": "Const", "input": ["^args_0"], "attr": {"value": {"tensor": {"dtype": "DT_INT32", "tensorShape": {"dim": [{"size": "4"}]}}}, "dtype": {"type": "DT_INT32"}}}, {"name": "StatefulPartitionedCall/efficient_sam/StatefulPartitionedCall/image_encoder/blocks.1/layer_norm1/batchnorm/ReadVariableOp", "op": "Const", "input": ["^args_0"], "attr": {"value": {"tensor": {"dtype": "DT_FLOAT", "tensorShape": {"dim": [{"size": "192"}]}}}, "dtype": {"type": "DT_FLOAT"}}}, {"name": "StatefulPartitionedCall/efficient_sam/StatefulPartitionedCall/image_encoder/blocks.0/mlp/fc2/Tensordot/Const", "op": "Const", "input": ["^args_0"], "attr": {"value": {"tensor": {"dtype": "DT_INT32", "tensorShape": {"dim": [{"size": "1"}]}}}, "dtype": {"type": "DT_INT32"}}}, {"name": "StatefulPartitionedCall/efficient_sam/StatefulPartitionedCall/image_encoder/blocks.0/mlp/fc2/Tensordot/axes", "op": "Const", "input": ["^args_0"], "attr": {"dtype": {"type": "DT_INT32"}, "value": {"tensor": {"dtype": "DT_INT32", "tensorShape": {"dim": [{"size": "1"}]}}}}}, {"name": "StatefulPartitionedCall/efficient_sam/StatefulPartitionedCall/image_encoder/blocks.0/mlp/fc2/Tensordot/GatherV2_1/axis", "op": "Const", "input": ["^args_0"], "attr": {"value": {"tensor": {"dtype": "DT_INT32", "tensorShape": {}}}, "dtype": {"type": "DT_INT32"}}}, {"name": "StatefulPartitionedCall/efficient_sam/StatefulPartitionedCall/image_encoder/blocks.0/mlp/fc2/Tensordot/Const_1", "op": "Const", "input": ["^args_0"], "attr": {"value": {"tensor": {"dtype": "DT_INT32", "tensorShape": {"dim": [{"size": "1"}]}}}, "dtype": {"type": "DT_INT32"}}}, {"name": "StatefulPartitionedCall/efficient_sam/StatefulPartitionedCall/image_encoder/blocks.0/mlp/fc2/Tensordot/ReadVariableOp", "op": "Const", "input": ["^args_0"], "attr": {"dtype": {"type": "DT_FLOAT"}, "value": {"tensor": {"dtype": "DT_FLOAT", "tensorShape": {"dim": [{"size": "768"}, {"size": "192"}]}}}}}, {"name": "StatefulPartitionedCall/efficient_sam/StatefulPartitionedCall/image_encoder/blocks.0/mlp/Gelu/mul/x", "op": "Const", "input": ["^args_0"], "attr": {"value": {"tensor": {"dtype": "DT_FLOAT", "tensorShape": {}}}, "dtype": {"type": "DT_FLOAT"}}}, {"name": "StatefulPartitionedCall/efficient_sam/StatefulPartitionedCall/image_encoder/blocks.0/mlp/Gelu/add/x", "op": "Const", "input": ["^args_0"], "attr": {"value": {"tensor": {"dtype": "DT_FLOAT", "tensorShape": {}}}, "dtype": {"type": "DT_FLOAT"}}}, {"name": "StatefulPartitionedCall/efficient_sam/StatefulPartitionedCall/image_encoder/blocks.0/mlp/fc1/Tensordot/Const", "op": "Const", "input": ["^args_0"], "attr": {"dtype": {"type": "DT_INT32"}, "value": {"tensor": {"dtype": "DT_INT32", "tensorShape": {"dim": [{"size": "1"}]}}}}}, {"name": "StatefulPartitionedCall/efficient_sam/StatefulPartitionedCall/image_encoder/blocks.0/mlp/fc1/Tensordot/axes", "op": "Const", "input": ["^args_0"], "attr": {"value": {"tensor": {"dtype": "DT_INT32", "tensorShape": {"dim": [{"size": "1"}]}}}, "dtype": {"type": "DT_INT32"}}}, {"name": "StatefulPartitionedCall/efficient_sam/StatefulPartitionedCall/image_encoder/blocks.0/mlp/fc1/Tensordot/GatherV2_1/axis", "op": "Const", "input": ["^args_0"], "attr": {"value": {"tensor": {"dtype": "DT_INT32", "tensorShape": {}}}, "dtype": {"type": "DT_INT32"}}}, {"name": "StatefulPartitionedCall/efficient_sam/StatefulPartitionedCall/image_encoder/blocks.0/mlp/fc1/Tensordot/Const_1", "op": "Const", "input": ["^args_0"], "attr": {"dtype": {"type": "DT_INT32"}, "value": {"tensor": {"dtype": "DT_INT32", "tensorShape": {"dim": [{"size": "1"}]}}}}}, {"name": "StatefulPartitionedCall/efficient_sam/StatefulPartitionedCall/image_encoder/blocks.0/mlp/fc1/Tensordot/ReadVariableOp", "op": "Const", "input": ["^args_0"], "attr": {"value": {"tensor": {"dtype": "DT_FLOAT", "tensorShape": {"dim": [{"size": "192"}, {"size": "768"}]}}}, "dtype": {"type": "DT_FLOAT"}}}, {"name": "StatefulPartitionedCall/efficient_sam/StatefulPartitionedCall/image_encoder/blocks.0/layer_norm2/batchnorm/ReadVariableOp", "op": "Const", "input": ["^args_0"], "attr": {"value": {"tensor": {"dtype": "DT_FLOAT", "tensorShape": {"dim": [{"size": "192"}]}}}, "dtype": {"type": "DT_FLOAT"}}}, {"name": "StatefulPartitionedCall/efficient_sam/StatefulPartitionedCall/image_encoder/blocks.0/attn/proj/Tensordot/Const", "op": "Const", "input": ["^args_0"], "attr": {"dtype": {"type": "DT_INT32"}, "value": {"tensor": {"dtype": "DT_INT32", "tensorShape": {"dim": [{"size": "1"}]}}}}}, {"name": "StatefulPartitionedCall/efficient_sam/StatefulPartitionedCall/image_encoder/blocks.0/attn/proj/Tensordot/axes", "op": "Const", "input": ["^args_0"], "attr": {"value": {"tensor": {"dtype": "DT_INT32", "tensorShape": {"dim": [{"size": "1"}]}}}, "dtype": {"type": "DT_INT32"}}}, {"name": "StatefulPartitionedCall/efficient_sam/StatefulPartitionedCall/image_encoder/blocks.0/attn/proj/Tensordot/GatherV2_1/axis", "op": "Const", "input": ["^args_0"], "attr": {"dtype": {"type": "DT_INT32"}, "value": {"tensor": {"dtype": "DT_INT32", "tensorShape": {}}}}}, {"name": "StatefulPartitionedCall/efficient_sam/StatefulPartitionedCall/image_encoder/blocks.0/attn/proj/Tensordot/Const_1", "op": "Const", "input": ["^args_0"], "attr": {"value": {"tensor": {"dtype": "DT_INT32", "tensorShape": {"dim": [{"size": "1"}]}}}, "dtype": {"type": "DT_INT32"}}}, {"name": "StatefulPartitionedCall/efficient_sam/StatefulPartitionedCall/image_encoder/blocks.0/attn/proj/Tensordot/ReadVariableOp", "op": "Const", "input": ["^args_0"], "attr": {"dtype": {"type": "DT_FLOAT"}, "value": {"tensor": {"dtype": "DT_FLOAT", "tensorShape": {"dim": [{"size": "192"}, {"size": "192"}]}}}}}, {"name": "StatefulPartitionedCall/efficient_sam/StatefulPartitionedCall/image_encoder/blocks.0/attn/mul/y", "op": "Const", "input": ["^args_0"], "attr": {"value": {"tensor": {"dtype": "DT_FLOAT", "tensorShape": {}}}, "dtype": {"type": "DT_FLOAT"}}}, {"name": "StatefulPartitionedCall/efficient_sam/StatefulPartitionedCall/image_encoder/blocks.0/attn/qkv/Tensordot/Const", "op": "Const", "input": ["^args_0"], "attr": {"value": {"tensor": {"dtype": "DT_INT32", "tensorShape": {"dim": [{"size": "1"}]}}}, "dtype": {"type": "DT_INT32"}}}, {"name": "StatefulPartitionedCall/efficient_sam/StatefulPartitionedCall/image_encoder/blocks.0/attn/qkv/Tensordot/axes", "op": "Const", "input": ["^args_0"], "attr": {"dtype": {"type": "DT_INT32"}, "value": {"tensor": {"dtype": "DT_INT32", "tensorShape": {"dim": [{"size": "1"}]}}}}}, {"name": "StatefulPartitionedCall/efficient_sam/StatefulPartitionedCall/image_encoder/blocks.0/attn/qkv/Tensordot/GatherV2_1/axis", "op": "Const", "input": ["^args_0"], "attr": {"value": {"tensor": {"dtype": "DT_INT32", "tensorShape": {}}}, "dtype": {"type": "DT_INT32"}}}, {"name": "StatefulPartitionedCall/efficient_sam/StatefulPartitionedCall/image_encoder/blocks.0/attn/qkv/Tensordot/Const_1", "op": "Const", "input": ["^args_0"], "attr": {"value": {"tensor": {"dtype": "DT_INT32", "tensorShape": {"dim": [{"size": "1"}]}}}, "dtype": {"type": "DT_INT32"}}}, {"name": "StatefulPartitionedCall/efficient_sam/StatefulPartitionedCall/image_encoder/blocks.0/attn/qkv/Tensordot/ReadVariableOp", "op": "Const", "input": ["^args_0"], "attr": {"value": {"tensor": {"dtype": "DT_FLOAT", "tensorShape": {"dim": [{"size": "192"}, {"size": "576"}]}}}, "dtype": {"type": "DT_FLOAT"}}}, {"name": "StatefulPartitionedCall/efficient_sam/StatefulPartitionedCall/image_encoder/blocks.0/attn/qkv/Tensordot/free", "op": "Const", "input": ["^args_0"], "attr": {"value": {"tensor": {"dtype": "DT_INT32", "tensorShape": {"dim": [{"size": "2"}]}}}, "dtype": {"type": "DT_INT32"}}}, {"name": "StatefulPartitionedCall/efficient_sam/StatefulPartitionedCall/image_encoder/blocks.0/attn/qkv/Tensordot/GatherV2/axis", "op": "Const", "input": ["^args_0"], "attr": {"value": {"tensor": {"dtype": "DT_INT32", "tensorShape": {}}}, "dtype": {"type": "DT_INT32"}}}, {"name": "StatefulPartitionedCall/efficient_sam/StatefulPartitionedCall/image_encoder/blocks.0/attn/qkv/Tensordot/Const_2", "op": "Const", "input": ["^args_0"], "attr": {"dtype": {"type": "DT_INT32"}, "value": {"tensor": {"dtype": "DT_INT32", "tensorShape": {"dim": [{"size": "1"}]}}}}}, {"name": "StatefulPartitionedCall/efficient_sam/StatefulPartitionedCall/image_encoder/blocks.0/attn/qkv/Tensordot/concat_1/axis", "op": "Const", "input": ["^args_0"], "attr": {"value": {"tensor": {"dtype": "DT_INT32", "tensorShape": {}}}, "dtype": {"type": "DT_INT32"}}}, {"name": "StatefulPartitionedCall/efficient_sam/StatefulPartitionedCall/image_encoder/blocks.0/attn/qkv/BiasAdd/ReadVariableOp", "op": "Const", "input": ["^args_0"], "attr": {"dtype": {"type": "DT_FLOAT"}, "value": {"tensor": {"dtype": "DT_FLOAT", "tensorShape": {"dim": [{"size": "576"}]}}}}}, {"name": "StatefulPartitionedCall/efficient_sam/StatefulPartitionedCall/image_encoder/blocks.0/attn/Reshape/shape/1", "op": "Const", "input": ["^args_0"], "attr": {"dtype": {"type": "DT_INT32"}, "value": {"tensor": {"dtype": "DT_INT32", "tensorShape": {}}}}}, {"name": "StatefulPartitionedCall/efficient_sam/StatefulPartitionedCall/image_encoder/blocks.0/attn/Reshape/shape/2", "op": "Const", "input": ["^args_0"], "attr": {"value": {"tensor": {"dtype": "DT_INT32", "tensorShape": {}}}, "dtype": {"type": "DT_INT32"}}}, {"name": "StatefulPartitionedCall/efficient_sam/StatefulPartitionedCall/image_encoder/blocks.0/attn/Reshape/shape/3", "op": "Const", "input": ["^args_0"], "attr": {"value": {"tensor": {"dtype": "DT_INT32", "tensorShape": {}}}, "dtype": {"type": "DT_INT32"}}}, {"name": "StatefulPartitionedCall/efficient_sam/StatefulPartitionedCall/image_encoder/blocks.0/attn/Reshape/shape/4", "op": "Const", "input": ["^args_0"], "attr": {"dtype": {"type": "DT_INT32"}, "value": {"tensor": {"dtype": "DT_INT32", "tensorShape": {}}}}}, {"name": "StatefulPartitionedCall/efficient_sam/StatefulPartitionedCall/image_encoder/blocks.0/attn/transpose/perm", "op": "Const", "input": ["^args_0"], "attr": {"value": {"tensor": {"dtype": "DT_INT32", "tensorShape": {"dim": [{"size": "5"}]}}}, "dtype": {"type": "DT_INT32"}}}, {"name": "StatefulPartitionedCall/efficient_sam/StatefulPartitionedCall/image_encoder/blocks.0/attn/transpose_2/perm", "op": "Const", "input": ["^args_0"], "attr": {"value": {"tensor": {"dtype": "DT_INT32", "tensorShape": {"dim": [{"size": "4"}]}}}, "dtype": {"type": "DT_INT32"}}}, {"name": "StatefulPartitionedCall/efficient_sam/StatefulPartitionedCall/image_encoder/blocks.0/layer_norm1/batchnorm/ReadVariableOp", "op": "Const", "input": ["^args_0"], "attr": {"value": {"tensor": {"dtype": "DT_FLOAT", "tensorShape": {"dim": [{"size": "192"}]}}}, "dtype": {"type": "DT_FLOAT"}}}, {"name": "StatefulPartitionedCall/efficient_sam/StatefulPartitionedCall/resize/size", "op": "Const", "input": ["^args_0"], "attr": {"value": {"tensor": {"dtype": "DT_INT32", "tensorShape": {"dim": [{"size": "2"}]}}}, "dtype": {"type": "DT_INT32"}}}, {"name": "StatefulPartitionedCall/efficient_sam/StatefulPartitionedCall/transpose/perm", "op": "Const", "input": ["^args_0"], "attr": {"dtype": {"type": "DT_INT32"}, "value": {"tensor": {"dtype": "DT_INT32", "tensorShape": {"dim": [{"size": "4"}]}}}}}, {"name": "Func/StatefulPartitionedCall/efficient_sam/StatefulPartitionedCall/input/_288", "op": "Const", "input": ["^args_0"], "attr": {"dtype": {"type": "DT_FLOAT"}, "value": {"tensor": {"dtype": "DT_FLOAT", "tensorShape": {"dim": [{"size": "1"}, {"size": "3"}, {"size": "1"}, {"size": "1"}]}}}}}, {"name": "ConstantFolding/StatefulPartitionedCall/efficient_sam/StatefulPartitionedCall/truediv_recip", "op": "Const", "input": ["^args_0"], "attr": {"dtype": {"type": "DT_FLOAT"}, "value": {"tensor": {"dtype": "DT_FLOAT", "tensorShape": {"dim": [{"size": "1"}, {"size": "3"}, {"size": "1"}, {"size": "1"}]}}}}}, {"name": "StatefulPartitionedCall/efficient_sam/StatefulPartitionedCall/image_encoder/patch_embed/transpose/perm", "op": "Const", "input": ["^args_0"], "attr": {"value": {"tensor": {"dtype": "DT_INT32", "tensorShape": {"dim": [{"size": "4"}]}}}, "dtype": {"type": "DT_INT32"}}}, {"name": "StatefulPartitionedCall/efficient_sam/StatefulPartitionedCall/image_encoder/patch_embed/proj/Conv2D/ReadVariableOp", "op": "Const", "input": ["^args_0"], "attr": {"dtype": {"type": "DT_FLOAT"}, "value": {"tensor": {"dtype": "DT_FLOAT", "tensorShape": {"dim": [{"size": "16"}, {"size": "16"}, {"size": "3"}, {"size": "192"}]}}}}}, {"name": "StatefulPartitionedCall/efficient_sam/StatefulPartitionedCall/image_encoder/patch_embed/proj/BiasAdd/ReadVariableOp", "op": "Const", "input": ["^args_0"], "attr": {"value": {"tensor": {"dtype": "DT_FLOAT", "tensorShape": {"dim": [{"size": "192"}]}}}, "dtype": {"type": "DT_FLOAT"}}}, {"name": "StatefulPartitionedCall/efficient_sam/StatefulPartitionedCall/image_encoder/Reshape", "op": "Const", "input": ["^args_0"], "attr": {"dtype": {"type": "DT_FLOAT"}, "value": {"tensor": {"dtype": "DT_FLOAT", "tensorShape": {"dim": [{"size": "1"}, {"size": "14"}, {"size": "14"}, {"size": "192"}]}}}}}, {"name": "StatefulPartitionedCall/efficient_sam/StatefulPartitionedCall/image_encoder/resize/size", "op": "Const", "input": ["^args_0"], "attr": {"value": {"tensor": {"dtype": "DT_INT32", "tensorShape": {"dim": [{"size": "2"}]}}}, "dtype": {"type": "DT_INT32"}}}, {"name": "StatefulPartitionedCall/efficient_sam/StatefulPartitionedCall/image_encoder/Reshape_1/shape", "op": "Const", "input": ["^args_0"], "attr": {"value": {"tensor": {"dtype": "DT_INT32", "tensorShape": {"dim": [{"size": "3"}]}}}, "dtype": {"type": "DT_INT32"}}}, {"name": "StatefulPartitionedCall/efficient_sam/StatefulPartitionedCall/image_encoder/blocks.0/layer_norm1/moments/mean/reduction_indices", "op": "Const", "input": ["^args_0"], "attr": {"value": {"tensor": {"dtype": "DT_INT32", "tensorShape": {"dim": [{"size": "1"}]}}}, "dtype": {"type": "DT_INT32"}}}, {"name": "StatefulPartitionedCall/efficient_sam/StatefulPartitionedCall/image_encoder/blocks.0/layer_norm1/moments/variance/reduction_indices", "op": "Const", "input": ["^args_0"], "attr": {"value": {"tensor": {"dtype": "DT_INT32", "tensorShape": {"dim": [{"size": "1"}]}}}, "dtype": {"type": "DT_INT32"}}}, {"name": "StatefulPartitionedCall/efficient_sam/StatefulPartitionedCall/image_encoder/blocks.0/layer_norm1/batchnorm/add/y", "op": "Const", "input": ["^args_0"], "attr": {"dtype": {"type": "DT_FLOAT"}, "value": {"tensor": {"dtype": "DT_FLOAT", "tensorShape": {}}}}}, {"name": "StatefulPartitionedCall/efficient_sam/StatefulPartitionedCall/image_encoder/blocks.0/layer_norm1/batchnorm/mul/ReadVariableOp", "op": "Const", "input": ["^args_0"], "attr": {"dtype": {"type": "DT_FLOAT"}, "value": {"tensor": {"dtype": "DT_FLOAT", "tensorShape": {"dim": [{"size": "192"}]}}}}}, {"name": "StatefulPartitionedCall/efficient_sam/StatefulPartitionedCall/image_encoder/blocks.0/attn/strided_slice/stack", "op": "Const", "input": ["^args_0"], "attr": {"value": {"tensor": {"dtype": "DT_INT32", "tensorShape": {"dim": [{"size": "1"}]}}}, "dtype": {"type": "DT_INT32"}}}, {"name": "StatefulPartitionedCall/efficient_sam/StatefulPartitionedCall/image_encoder/blocks.0/attn/strided_slice/stack_1", "op": "Const", "input": ["^args_0"], "attr": {"value": {"tensor": {"dtype": "DT_INT32", "tensorShape": {"dim": [{"size": "1"}]}}}, "dtype": {"type": "DT_INT32"}}}, {"name": "StatefulPartitionedCall/efficient_sam/StatefulPartitionedCall/image_encoder/blocks.0/attn/strided_slice/stack_2", "op": "Const", "input": ["^args_0"], "attr": {"dtype": {"type": "DT_INT32"}, "value": {"tensor": {"dtype": "DT_INT32", "tensorShape": {"dim": [{"size": "1"}]}}}}}, {"name": "StatefulPartitionedCall/efficient_sam/StatefulPartitionedCall/image_encoder/blocks.0/attn/Reshape_1/shape/1", "op": "Const", "input": ["^args_0"], "attr": {"dtype": {"type": "DT_INT32"}, "value": {"tensor": {"dtype": "DT_INT32", "tensorShape": {}}}}}, {"name": "StatefulPartitionedCall/efficient_sam/StatefulPartitionedCall/image_encoder/blocks.0/attn/Reshape_1/shape/2", "op": "Const", "input": ["^args_0"], "attr": {"value": {"tensor": {"dtype": "DT_INT32", "tensorShape": {}}}, "dtype": {"type": "DT_INT32"}}}, {"name": "StatefulPartitionedCall/efficient_sam/StatefulPartitionedCall/image_encoder/blocks.0/attn/proj/Tensordot/free", "op": "Const", "input": ["^args_0"], "attr": {"value": {"tensor": {"dtype": "DT_INT32", "tensorShape": {"dim": [{"size": "2"}]}}}, "dtype": {"type": "DT_INT32"}}}, {"name": "StatefulPartitionedCall/efficient_sam/StatefulPartitionedCall/image_encoder/blocks.0/attn/proj/Tensordot/GatherV2/axis", "op": "Const", "input": ["^args_0"], "attr": {"dtype": {"type": "DT_INT32"}, "value": {"tensor": {"dtype": "DT_INT32", "tensorShape": {}}}}}, {"name": "StatefulPartitionedCall/efficient_sam/StatefulPartitionedCall/image_encoder/blocks.0/attn/proj/Tensordot/Const_2", "op": "Const", "input": ["^args_0"], "attr": {"dtype": {"type": "DT_INT32"}, "value": {"tensor": {"dtype": "DT_INT32", "tensorShape": {"dim": [{"size": "1"}]}}}}}, {"name": "StatefulPartitionedCall/efficient_sam/StatefulPartitionedCall/image_encoder/blocks.0/attn/proj/Tensordot/concat_1/axis", "op": "Const", "input": ["^args_0"], "attr": {"dtype": {"type": "DT_INT32"}, "value": {"tensor": {"dtype": "DT_INT32", "tensorShape": {}}}}}, {"name": "StatefulPartitionedCall/efficient_sam/StatefulPartitionedCall/image_encoder/blocks.0/attn/proj/BiasAdd/ReadVariableOp", "op": "Const", "input": ["^args_0"], "attr": {"dtype": {"type": "DT_FLOAT"}, "value": {"tensor": {"dtype": "DT_FLOAT", "tensorShape": {"dim": [{"size": "192"}]}}}}}, {"name": "StatefulPartitionedCall/efficient_sam/StatefulPartitionedCall/image_encoder/blocks.0/layer_norm2/moments/mean/reduction_indices", "op": "Const", "input": ["^args_0"], "attr": {"value": {"tensor": {"dtype": "DT_INT32", "tensorShape": {"dim": [{"size": "1"}]}}}, "dtype": {"type": "DT_INT32"}}}, {"name": "StatefulPartitionedCall/efficient_sam/StatefulPartitionedCall/image_encoder/blocks.0/layer_norm2/moments/variance/reduction_indices", "op": "Const", "input": ["^args_0"], "attr": {"value": {"tensor": {"dtype": "DT_INT32", "tensorShape": {"dim": [{"size": "1"}]}}}, "dtype": {"type": "DT_INT32"}}}, {"name": "StatefulPartitionedCall/efficient_sam/StatefulPartitionedCall/image_encoder/blocks.0/layer_norm2/batchnorm/add/y", "op": "Const", "input": ["^args_0"], "attr": {"value": {"tensor": {"dtype": "DT_FLOAT", "tensorShape": {}}}, "dtype": {"type": "DT_FLOAT"}}}, {"name": "StatefulPartitionedCall/efficient_sam/StatefulPartitionedCall/image_encoder/blocks.0/layer_norm2/batchnorm/mul/ReadVariableOp", "op": "Const", "input": ["^args_0"], "attr": {"dtype": {"type": "DT_FLOAT"}, "value": {"tensor": {"dtype": "DT_FLOAT", "tensorShape": {"dim": [{"size": "192"}]}}}}}, {"name": "StatefulPartitionedCall/efficient_sam/StatefulPartitionedCall/image_encoder/blocks.0/mlp/fc1/Tensordot/free", "op": "Const", "input": ["^args_0"], "attr": {"value": {"tensor": {"dtype": "DT_INT32", "tensorShape": {"dim": [{"size": "2"}]}}}, "dtype": {"type": "DT_INT32"}}}, {"name": "StatefulPartitionedCall/efficient_sam/StatefulPartitionedCall/image_encoder/blocks.0/mlp/fc1/Tensordot/GatherV2/axis", "op": "Const", "input": ["^args_0"], "attr": {"value": {"tensor": {"dtype": "DT_INT32", "tensorShape": {}}}, "dtype": {"type": "DT_INT32"}}}, {"name": "StatefulPartitionedCall/efficient_sam/StatefulPartitionedCall/image_encoder/blocks.0/mlp/fc1/Tensordot/Const_2", "op": "Const", "input": ["^args_0"], "attr": {"value": {"tensor": {"dtype": "DT_INT32", "tensorShape": {"dim": [{"size": "1"}]}}}, "dtype": {"type": "DT_INT32"}}}, {"name": "StatefulPartitionedCall/efficient_sam/StatefulPartitionedCall/image_encoder/blocks.0/mlp/fc1/Tensordot/concat_1/axis", "op": "Const", "input": ["^args_0"], "attr": {"dtype": {"type": "DT_INT32"}, "value": {"tensor": {"dtype": "DT_INT32", "tensorShape": {}}}}}, {"name": "StatefulPartitionedCall/efficient_sam/StatefulPartitionedCall/image_encoder/blocks.0/mlp/fc1/BiasAdd/ReadVariableOp", "op": "Const", "input": ["^args_0"], "attr": {"value": {"tensor": {"dtype": "DT_FLOAT", "tensorShape": {"dim": [{"size": "768"}]}}}, "dtype": {"type": "DT_FLOAT"}}}, {"name": "ConstantFolding/StatefulPartitionedCall/efficient_sam/StatefulPartitionedCall/image_encoder/blocks.0/mlp/Gelu/truediv_recip", "op": "Const", "input": ["^args_0"], "attr": {"value": {"tensor": {"dtype": "DT_FLOAT", "tensorShape": {}}}, "dtype": {"type": "DT_FLOAT"}}}, {"name": "StatefulPartitionedCall/efficient_sam/StatefulPartitionedCall/image_encoder/blocks.0/mlp/fc2/Tensordot/free", "op": "Const", "input": ["^args_0"], "attr": {"value": {"tensor": {"dtype": "DT_INT32", "tensorShape": {"dim": [{"size": "2"}]}}}, "dtype": {"type": "DT_INT32"}}}, {"name": "StatefulPartitionedCall/efficient_sam/StatefulPartitionedCall/image_encoder/blocks.0/mlp/fc2/Tensordot/GatherV2/axis", "op": "Const", "input": ["^args_0"], "attr": {"dtype": {"type": "DT_INT32"}, "value": {"tensor": {"dtype": "DT_INT32", "tensorShape": {}}}}}, {"name": "StatefulPartitionedCall/efficient_sam/StatefulPartitionedCall/image_encoder/blocks.0/mlp/fc2/Tensordot/Const_2", "op": "Const", "input": ["^args_0"], "attr": {"value": {"tensor": {"dtype": "DT_INT32", "tensorShape": {"dim": [{"size": "1"}]}}}, "dtype": {"type": "DT_INT32"}}}, {"name": "StatefulPartitionedCall/efficient_sam/StatefulPartitionedCall/image_encoder/blocks.0/mlp/fc2/Tensordot/concat_1/axis", "op": "Const", "input": ["^args_0"], "attr": {"value": {"tensor": {"dtype": "DT_INT32", "tensorShape": {}}}, "dtype": {"type": "DT_INT32"}}}, {"name": "StatefulPartitionedCall/efficient_sam/StatefulPartitionedCall/image_encoder/blocks.0/mlp/fc2/BiasAdd/ReadVariableOp", "op": "Const", "input": ["^args_0"], "attr": {"value": {"tensor": {"dtype": "DT_FLOAT", "tensorShape": {"dim": [{"size": "192"}]}}}, "dtype": {"type": "DT_FLOAT"}}}, {"name": "StatefulPartitionedCall/efficient_sam/StatefulPartitionedCall/image_encoder/blocks.1/layer_norm1/moments/mean/reduction_indices", "op": "Const", "input": ["^args_0"], "attr": {"value": {"tensor": {"dtype": "DT_INT32", "tensorShape": {"dim": [{"size": "1"}]}}}, "dtype": {"type": "DT_INT32"}}}, {"name": "StatefulPartitionedCall/efficient_sam/StatefulPartitionedCall/image_encoder/blocks.1/layer_norm1/moments/variance/reduction_indices", "op": "Const", "input": ["^args_0"], "attr": {"dtype": {"type": "DT_INT32"}, "value": {"tensor": {"dtype": "DT_INT32", "tensorShape": {"dim": [{"size": "1"}]}}}}}, {"name": "StatefulPartitionedCall/efficient_sam/StatefulPartitionedCall/image_encoder/blocks.1/layer_norm1/batchnorm/add/y", "op": "Const", "input": ["^args_0"], "attr": {"value": {"tensor": {"dtype": "DT_FLOAT", "tensorShape": {}}}, "dtype": {"type": "DT_FLOAT"}}}, {"name": "StatefulPartitionedCall/efficient_sam/StatefulPartitionedCall/image_encoder/blocks.1/layer_norm1/batchnorm/mul/ReadVariableOp", "op": "Const", "input": ["^args_0"], "attr": {"value": {"tensor": {"dtype": "DT_FLOAT", "tensorShape": {"dim": [{"size": "192"}]}}}, "dtype": {"type": "DT_FLOAT"}}}, {"name": "StatefulPartitionedCall/efficient_sam/StatefulPartitionedCall/image_encoder/blocks.1/attn/strided_slice/stack", "op": "Const", "input": ["^args_0"], "attr": {"value": {"tensor": {"dtype": "DT_INT32", "tensorShape": {"dim": [{"size": "1"}]}}}, "dtype": {"type": "DT_INT32"}}}, {"name": "StatefulPartitionedCall/efficient_sam/StatefulPartitionedCall/image_encoder/blocks.1/attn/strided_slice/stack_1", "op": "Const", "input": ["^args_0"], "attr": {"value": {"tensor": {"dtype": "DT_INT32", "tensorShape": {"dim": [{"size": "1"}]}}}, "dtype": {"type": "DT_INT32"}}}, {"name": "StatefulPartitionedCall/efficient_sam/StatefulPartitionedCall/image_encoder/blocks.1/attn/strided_slice/stack_2", "op": "Const", "input": ["^args_0"], "attr": {"value": {"tensor": {"dtype": "DT_INT32", "tensorShape": {"dim": [{"size": "1"}]}}}, "dtype": {"type": "DT_INT32"}}}, {"name": "StatefulPartitionedCall/efficient_sam/StatefulPartitionedCall/image_encoder/blocks.1/attn/Reshape_1/shape/1", "op": "Const", "input": ["^args_0"], "attr": {"dtype": {"type": "DT_INT32"}, "value": {"tensor": {"dtype": "DT_INT32", "tensorShape": {}}}}}, {"name": "StatefulPartitionedCall/efficient_sam/StatefulPartitionedCall/image_encoder/blocks.1/attn/Reshape_1/shape/2", "op": "Const", "input": ["^args_0"], "attr": {"value": {"tensor": {"dtype": "DT_INT32", "tensorShape": {}}}, "dtype": {"type": "DT_INT32"}}}, {"name": "StatefulPartitionedCall/efficient_sam/StatefulPartitionedCall/image_encoder/blocks.1/attn/proj/Tensordot/free", "op": "Const", "input": ["^args_0"], "attr": {"value": {"tensor": {"dtype": "DT_INT32", "tensorShape": {"dim": [{"size": "2"}]}}}, "dtype": {"type": "DT_INT32"}}}, {"name": "StatefulPartitionedCall/efficient_sam/StatefulPartitionedCall/image_encoder/blocks.1/attn/proj/Tensordot/GatherV2/axis", "op": "Const", "input": ["^args_0"], "attr": {"dtype": {"type": "DT_INT32"}, "value": {"tensor": {"dtype": "DT_INT32", "tensorShape": {}}}}}, {"name": "StatefulPartitionedCall/efficient_sam/StatefulPartitionedCall/image_encoder/blocks.1/attn/proj/Tensordot/Const_2", "op": "Const", "input": ["^args_0"], "attr": {"dtype": {"type": "DT_INT32"}, "value": {"tensor": {"dtype": "DT_INT32", "tensorShape": {"dim": [{"size": "1"}]}}}}}, {"name": "StatefulPartitionedCall/efficient_sam/StatefulPartitionedCall/image_encoder/blocks.1/attn/proj/Tensordot/concat_1/axis", "op": "Const", "input": ["^args_0"], "attr": {"value": {"tensor": {"dtype": "DT_INT32", "tensorShape": {}}}, "dtype": {"type": "DT_INT32"}}}, {"name": "StatefulPartitionedCall/efficient_sam/StatefulPartitionedCall/image_encoder/blocks.1/attn/proj/BiasAdd/ReadVariableOp", "op": "Const", "input": ["^args_0"], "attr": {"dtype": {"type": "DT_FLOAT"}, "value": {"tensor": {"dtype": "DT_FLOAT", "tensorShape": {"dim": [{"size": "192"}]}}}}}, {"name": "StatefulPartitionedCall/efficient_sam/StatefulPartitionedCall/image_encoder/blocks.1/layer_norm2/moments/mean/reduction_indices", "op": "Const", "input": ["^args_0"], "attr": {"dtype": {"type": "DT_INT32"}, "value": {"tensor": {"dtype": "DT_INT32", "tensorShape": {"dim": [{"size": "1"}]}}}}}, {"name": "StatefulPartitionedCall/efficient_sam/StatefulPartitionedCall/image_encoder/blocks.1/layer_norm2/moments/variance/reduction_indices", "op": "Const", "input": ["^args_0"], "attr": {"value": {"tensor": {"dtype": "DT_INT32", "tensorShape": {"dim": [{"size": "1"}]}}}, "dtype": {"type": "DT_INT32"}}}, {"name": "StatefulPartitionedCall/efficient_sam/StatefulPartitionedCall/image_encoder/blocks.1/layer_norm2/batchnorm/add/y", "op": "Const", "input": ["^args_0"], "attr": {"value": {"tensor": {"dtype": "DT_FLOAT", "tensorShape": {}}}, "dtype": {"type": "DT_FLOAT"}}}, {"name": "StatefulPartitionedCall/efficient_sam/StatefulPartitionedCall/image_encoder/blocks.1/layer_norm2/batchnorm/mul/ReadVariableOp", "op": "Const", "input": ["^args_0"], "attr": {"dtype": {"type": "DT_FLOAT"}, "value": {"tensor": {"dtype": "DT_FLOAT", "tensorShape": {"dim": [{"size": "192"}]}}}}}, {"name": "StatefulPartitionedCall/efficient_sam/StatefulPartitionedCall/image_encoder/blocks.1/mlp/fc1/Tensordot/free", "op": "Const", "input": ["^args_0"], "attr": {"value": {"tensor": {"dtype": "DT_INT32", "tensorShape": {"dim": [{"size": "2"}]}}}, "dtype": {"type": "DT_INT32"}}}, {"name": "StatefulPartitionedCall/efficient_sam/StatefulPartitionedCall/image_encoder/blocks.1/mlp/fc1/Tensordot/GatherV2/axis", "op": "Const", "input": ["^args_0"], "attr": {"value": {"tensor": {"dtype": "DT_INT32", "tensorShape": {}}}, "dtype": {"type": "DT_INT32"}}}, {"name": "StatefulPartitionedCall/efficient_sam/StatefulPartitionedCall/image_encoder/blocks.1/mlp/fc1/Tensordot/Const_2", "op": "Const", "input": ["^args_0"], "attr": {"value": {"tensor": {"dtype": "DT_INT32", "tensorShape": {"dim": [{"size": "1"}]}}}, "dtype": {"type": "DT_INT32"}}}, {"name": "StatefulPartitionedCall/efficient_sam/StatefulPartitionedCall/image_encoder/blocks.1/mlp/fc1/Tensordot/concat_1/axis", "op": "Const", "input": ["^args_0"], "attr": {"dtype": {"type": "DT_INT32"}, "value": {"tensor": {"dtype": "DT_INT32", "tensorShape": {}}}}}, {"name": "StatefulPartitionedCall/efficient_sam/StatefulPartitionedCall/image_encoder/blocks.1/mlp/fc1/BiasAdd/ReadVariableOp", "op": "Const", "input": ["^args_0"], "attr": {"dtype": {"type": "DT_FLOAT"}, "value": {"tensor": {"dtype": "DT_FLOAT", "tensorShape": {"dim": [{"size": "768"}]}}}}}, {"name": "ConstantFolding/StatefulPartitionedCall/efficient_sam/StatefulPartitionedCall/image_encoder/blocks.1/mlp/Gelu/truediv_recip", "op": "Const", "input": ["^args_0"], "attr": {"dtype": {"type": "DT_FLOAT"}, "value": {"tensor": {"dtype": "DT_FLOAT", "tensorShape": {}}}}}, {"name": "StatefulPartitionedCall/efficient_sam/StatefulPartitionedCall/image_encoder/blocks.1/mlp/fc2/Tensordot/free", "op": "Const", "input": ["^args_0"], "attr": {"value": {"tensor": {"dtype": "DT_INT32", "tensorShape": {"dim": [{"size": "2"}]}}}, "dtype": {"type": "DT_INT32"}}}, {"name": "StatefulPartitionedCall/efficient_sam/StatefulPartitionedCall/image_encoder/blocks.1/mlp/fc2/Tensordot/GatherV2/axis", "op": "Const", "input": ["^args_0"], "attr": {"value": {"tensor": {"dtype": "DT_INT32", "tensorShape": {}}}, "dtype": {"type": "DT_INT32"}}}, {"name": "StatefulPartitionedCall/efficient_sam/StatefulPartitionedCall/image_encoder/blocks.1/mlp/fc2/Tensordot/Const_2", "op": "Const", "input": ["^args_0"], "attr": {"value": {"tensor": {"dtype": "DT_INT32", "tensorShape": {"dim": [{"size": "1"}]}}}, "dtype": {"type": "DT_INT32"}}}, {"name": "StatefulPartitionedCall/efficient_sam/StatefulPartitionedCall/image_encoder/blocks.1/mlp/fc2/Tensordot/concat_1/axis", "op": "Const", "input": ["^args_0"], "attr": {"value": {"tensor": {"dtype": "DT_INT32", "tensorShape": {}}}, "dtype": {"type": "DT_INT32"}}}, {"name": "StatefulPartitionedCall/efficient_sam/StatefulPartitionedCall/image_encoder/blocks.1/mlp/fc2/BiasAdd/ReadVariableOp", "op": "Const", "input": ["^args_0"], "attr": {"value": {"tensor": {"dtype": "DT_FLOAT", "tensorShape": {"dim": [{"size": "192"}]}}}, "dtype": {"type": "DT_FLOAT"}}}, {"name": "StatefulPartitionedCall/efficient_sam/StatefulPartitionedCall/image_encoder/blocks.2/layer_norm1/moments/mean/reduction_indices", "op": "Const", "input": ["^args_0"], "attr": {"dtype": {"type": "DT_INT32"}, "value": {"tensor": {"dtype": "DT_INT32", "tensorShape": {"dim": [{"size": "1"}]}}}}}, {"name": "StatefulPartitionedCall/efficient_sam/StatefulPartitionedCall/image_encoder/blocks.2/layer_norm1/moments/variance/reduction_indices", "op": "Const", "input": ["^args_0"], "attr": {"value": {"tensor": {"dtype": "DT_INT32", "tensorShape": {"dim": [{"size": "1"}]}}}, "dtype": {"type": "DT_INT32"}}}, {"name": "StatefulPartitionedCall/efficient_sam/StatefulPartitionedCall/image_encoder/blocks.2/layer_norm1/batchnorm/add/y", "op": "Const", "input": ["^args_0"], "attr": {"value": {"tensor": {"dtype": "DT_FLOAT", "tensorShape": {}}}, "dtype": {"type": "DT_FLOAT"}}}, {"name": "StatefulPartitionedCall/efficient_sam/StatefulPartitionedCall/image_encoder/blocks.2/layer_norm1/batchnorm/mul/ReadVariableOp", "op": "Const", "input": ["^args_0"], "attr": {"dtype": {"type": "DT_FLOAT"}, "value": {"tensor": {"dtype": "DT_FLOAT", "tensorShape": {"dim": [{"size": "192"}]}}}}}, {"name": "StatefulPartitionedCall/efficient_sam/StatefulPartitionedCall/image_encoder/blocks.2/attn/strided_slice/stack", "op": "Const", "input": ["^args_0"], "attr": {"value": {"tensor": {"dtype": "DT_INT32", "tensorShape": {"dim": [{"size": "1"}]}}}, "dtype": {"type": "DT_INT32"}}}, {"name": "StatefulPartitionedCall/efficient_sam/StatefulPartitionedCall/image_encoder/blocks.2/attn/strided_slice/stack_1", "op": "Const", "input": ["^args_0"], "attr": {"value": {"tensor": {"dtype": "DT_INT32", "tensorShape": {"dim": [{"size": "1"}]}}}, "dtype": {"type": "DT_INT32"}}}, {"name": "StatefulPartitionedCall/efficient_sam/StatefulPartitionedCall/image_encoder/blocks.2/attn/strided_slice/stack_2", "op": "Const", "input": ["^args_0"], "attr": {"dtype": {"type": "DT_INT32"}, "value": {"tensor": {"dtype": "DT_INT32", "tensorShape": {"dim": [{"size": "1"}]}}}}}, {"name": "StatefulPartitionedCall/efficient_sam/StatefulPartitionedCall/image_encoder/blocks.2/attn/Reshape_1/shape/1", "op": "Const", "input": ["^args_0"], "attr": {"value": {"tensor": {"dtype": "DT_INT32", "tensorShape": {}}}, "dtype": {"type": "DT_INT32"}}}, {"name": "StatefulPartitionedCall/efficient_sam/StatefulPartitionedCall/image_encoder/blocks.2/attn/Reshape_1/shape/2", "op": "Const", "input": ["^args_0"], "attr": {"value": {"tensor": {"dtype": "DT_INT32", "tensorShape": {}}}, "dtype": {"type": "DT_INT32"}}}, {"name": "StatefulPartitionedCall/efficient_sam/StatefulPartitionedCall/image_encoder/blocks.2/attn/proj/Tensordot/free", "op": "Const", "input": ["^args_0"], "attr": {"value": {"tensor": {"dtype": "DT_INT32", "tensorShape": {"dim": [{"size": "2"}]}}}, "dtype": {"type": "DT_INT32"}}}, {"name": "StatefulPartitionedCall/efficient_sam/StatefulPartitionedCall/image_encoder/blocks.2/attn/proj/Tensordot/GatherV2/axis", "op": "Const", "input": ["^args_0"], "attr": {"dtype": {"type": "DT_INT32"}, "value": {"tensor": {"dtype": "DT_INT32", "tensorShape": {}}}}}, {"name": "StatefulPartitionedCall/efficient_sam/StatefulPartitionedCall/image_encoder/blocks.2/attn/proj/Tensordot/Const_2", "op": "Const", "input": ["^args_0"], "attr": {"value": {"tensor": {"dtype": "DT_INT32", "tensorShape": {"dim": [{"size": "1"}]}}}, "dtype": {"type": "DT_INT32"}}}, {"name": "StatefulPartitionedCall/efficient_sam/StatefulPartitionedCall/image_encoder/blocks.2/attn/proj/Tensordot/concat_1/axis", "op": "Const", "input": ["^args_0"], "attr": {"value": {"tensor": {"dtype": "DT_INT32", "tensorShape": {}}}, "dtype": {"type": "DT_INT32"}}}, {"name": "StatefulPartitionedCall/efficient_sam/StatefulPartitionedCall/image_encoder/blocks.2/attn/proj/BiasAdd/ReadVariableOp", "op": "Const", "input": ["^args_0"], "attr": {"dtype": {"type": "DT_FLOAT"}, "value": {"tensor": {"dtype": "DT_FLOAT", "tensorShape": {"dim": [{"size": "192"}]}}}}}, {"name": "StatefulPartitionedCall/efficient_sam/StatefulPartitionedCall/image_encoder/blocks.2/layer_norm2/moments/mean/reduction_indices", "op": "Const", "input": ["^args_0"], "attr": {"value": {"tensor": {"dtype": "DT_INT32", "tensorShape": {"dim": [{"size": "1"}]}}}, "dtype": {"type": "DT_INT32"}}}, {"name": "StatefulPartitionedCall/efficient_sam/StatefulPartitionedCall/image_encoder/blocks.2/layer_norm2/moments/variance/reduction_indices", "op": "Const", "input": ["^args_0"], "attr": {"dtype": {"type": "DT_INT32"}, "value": {"tensor": {"dtype": "DT_INT32", "tensorShape": {"dim": [{"size": "1"}]}}}}}, {"name": "StatefulPartitionedCall/efficient_sam/StatefulPartitionedCall/image_encoder/blocks.2/layer_norm2/batchnorm/add/y", "op": "Const", "input": ["^args_0"], "attr": {"value": {"tensor": {"dtype": "DT_FLOAT", "tensorShape": {}}}, "dtype": {"type": "DT_FLOAT"}}}, {"name": "StatefulPartitionedCall/efficient_sam/StatefulPartitionedCall/image_encoder/blocks.2/layer_norm2/batchnorm/mul/ReadVariableOp", "op": "Const", "input": ["^args_0"], "attr": {"dtype": {"type": "DT_FLOAT"}, "value": {"tensor": {"dtype": "DT_FLOAT", "tensorShape": {"dim": [{"size": "192"}]}}}}}, {"name": "StatefulPartitionedCall/efficient_sam/StatefulPartitionedCall/image_encoder/blocks.2/mlp/fc1/Tensordot/free", "op": "Const", "input": ["^args_0"], "attr": {"dtype": {"type": "DT_INT32"}, "value": {"tensor": {"dtype": "DT_INT32", "tensorShape": {"dim": [{"size": "2"}]}}}}}, {"name": "StatefulPartitionedCall/efficient_sam/StatefulPartitionedCall/image_encoder/blocks.2/mlp/fc1/Tensordot/GatherV2/axis", "op": "Const", "input": ["^args_0"], "attr": {"dtype": {"type": "DT_INT32"}, "value": {"tensor": {"dtype": "DT_INT32", "tensorShape": {}}}}}, {"name": "StatefulPartitionedCall/efficient_sam/StatefulPartitionedCall/image_encoder/blocks.2/mlp/fc1/Tensordot/Const_2", "op": "Const", "input": ["^args_0"], "attr": {"dtype": {"type": "DT_INT32"}, "value": {"tensor": {"dtype": "DT_INT32", "tensorShape": {"dim": [{"size": "1"}]}}}}}, {"name": "StatefulPartitionedCall/efficient_sam/StatefulPartitionedCall/image_encoder/blocks.2/mlp/fc1/Tensordot/concat_1/axis", "op": "Const", "input": ["^args_0"], "attr": {"value": {"tensor": {"dtype": "DT_INT32", "tensorShape": {}}}, "dtype": {"type": "DT_INT32"}}}, {"name": "StatefulPartitionedCall/efficient_sam/StatefulPartitionedCall/image_encoder/blocks.2/mlp/fc1/BiasAdd/ReadVariableOp", "op": "Const", "input": ["^args_0"], "attr": {"value": {"tensor": {"dtype": "DT_FLOAT", "tensorShape": {"dim": [{"size": "768"}]}}}, "dtype": {"type": "DT_FLOAT"}}}, {"name": "ConstantFolding/StatefulPartitionedCall/efficient_sam/StatefulPartitionedCall/image_encoder/blocks.2/mlp/…
titionedCall_1/mask_decoder/transformer/layers_._0/cross_attn_image_to_token/out_proj/Tensordot/Const_2", "shape": [1], "dtype": "int32"}, {"name": "StatefulPartitionedCall/efficient_sam/StatefulPartitionedCall_1/mask_decoder/transformer/layers_._0/cross_attn_image_to_token/out_proj/Tensordot/concat_1/axis", "shape": [], "dtype": "int32"}, {"name": "StatefulPartitionedCall/efficient_sam/StatefulPartitionedCall_1/mask_decoder/transformer/layers_._0/layer_norm4/moments/mean/reduction_indices", "shape": [1], "dtype": "int32"}, {"name": "StatefulPartitionedCall/efficient_sam/StatefulPartitionedCall_1/mask_decoder/transformer/layers_._0/layer_norm4/moments/variance/reduction_indices", "shape": [1], "dtype": "int32"}, {"name": "StatefulPartitionedCall/efficient_sam/StatefulPartitionedCall_1/mask_decoder/transformer/layers_._0/layer_norm4/batchnorm/add/y", "shape": [], "dtype": "float32"}, {"name": "StatefulPartitionedCall/efficient_sam/StatefulPartitionedCall_1/mask_decoder/transformer/layers_._1/cross_attn_token_to_image/v_proj/Tensordot/free", "shape": [2], "dtype": "int32"}, {"name": "StatefulPartitionedCall/efficient_sam/StatefulPartitionedCall_1/mask_decoder/transformer/layers_._1/cross_attn_token_to_image/v_proj/Tensordot/GatherV2/axis", "shape": [], "dtype": "int32"}, {"name": "StatefulPartitionedCall/efficient_sam/StatefulPartitionedCall_1/mask_decoder/transformer/layers_._1/cross_attn_token_to_image/v_proj/Tensordot/Const_2", "shape": [1], "dtype": "int32"}, {"name": "StatefulPartitionedCall/efficient_sam/StatefulPartitionedCall_1/mask_decoder/transformer/layers_._1/cross_attn_token_to_image/v_proj/Tensordot/concat_1/axis", "shape": [], "dtype": "int32"}, {"name": "StatefulPartitionedCall/efficient_sam/StatefulPartitionedCall_1/mask_decoder/transformer/layers_._1/cross_attn_token_to_image/strided_slice_5/stack", "shape": [1], "dtype": "int32"}, {"name": "StatefulPartitionedCall/efficient_sam/StatefulPartitionedCall_1/mask_decoder/transformer/layers_._1/cross_attn_token_to_image/strided_slice_5/stack_1", "shape": [1], "dtype": "int32"}, {"name": "StatefulPartitionedCall/efficient_sam/StatefulPartitionedCall_1/mask_decoder/transformer/layers_._1/cross_attn_token_to_image/strided_slice_5/stack_2", "shape": [1], "dtype": "int32"}, {"name": "StatefulPartitionedCall/efficient_sam/StatefulPartitionedCall_1/mask_decoder/transformer/layers_._1/cross_attn_token_to_image/Reshape_2/shape/2", "shape": [], "dtype": "int32"}, {"name": "StatefulPartitionedCall/efficient_sam/StatefulPartitionedCall_1/mask_decoder/transformer/layers_._1/cross_attn_token_to_image/Reshape_2/shape/3", "shape": [], "dtype": "int32"}, {"name": "StatefulPartitionedCall/efficient_sam/StatefulPartitionedCall_1/mask_decoder/transformer/layers_._1/cross_attn_token_to_image/transpose_2/perm", "shape": [4], "dtype": "int32"}, {"name": "StatefulPartitionedCall/efficient_sam/StatefulPartitionedCall_1/mask_decoder/transformer/layers_._1/cross_attn_token_to_image/strided_slice_7/stack", "shape": [1], "dtype": "int32"}, {"name": "StatefulPartitionedCall/efficient_sam/StatefulPartitionedCall_1/mask_decoder/transformer/layers_._1/cross_attn_token_to_image/strided_slice_7/stack_1", "shape": [1], "dtype": "int32"}, {"name": "StatefulPartitionedCall/efficient_sam/StatefulPartitionedCall_1/mask_decoder/transformer/layers_._1/cross_attn_token_to_image/strided_slice_7/stack_2", "shape": [1], "dtype": "int32"}, {"name": "StatefulPartitionedCall/efficient_sam/StatefulPartitionedCall_1/mask_decoder/transformer/layers_._1/cross_attn_token_to_image/Reshape_3/shape/1", "shape": [], "dtype": "int32"}, {"name": "StatefulPartitionedCall/efficient_sam/StatefulPartitionedCall_1/mask_decoder/transformer/layers_._1/cross_attn_token_to_image/Reshape_3/shape/2", "shape": [], "dtype": "int32"}, {"name": "StatefulPartitionedCall/efficient_sam/StatefulPartitionedCall_1/mask_decoder/transformer/layers_._1/cross_attn_token_to_image/out_proj/Tensordot/free", "shape": [2], "dtype": "int32"}, {"name": "StatefulPartitionedCall/efficient_sam/StatefulPartitionedCall_1/mask_decoder/transformer/layers_._1/cross_attn_token_to_image/out_proj/Tensordot/GatherV2/axis", "shape": [], "dtype": "int32"}, {"name": "StatefulPartitionedCall/efficient_sam/StatefulPartitionedCall_1/mask_decoder/transformer/layers_._1/cross_attn_token_to_image/out_proj/Tensordot/Const_2", "shape": [1], "dtype": "int32"}, {"name": "StatefulPartitionedCall/efficient_sam/StatefulPartitionedCall_1/mask_decoder/transformer/layers_._1/cross_attn_token_to_image/out_proj/Tensordot/concat_1/axis", "shape": [], "dtype": "int32"}, {"name": "StatefulPartitionedCall/efficient_sam/StatefulPartitionedCall_1/mask_decoder/transformer/layers_._1/layer_norm2/moments/mean/reduction_indices", "shape": [1], "dtype": "int32"}, {"name": "StatefulPartitionedCall/efficient_sam/StatefulPartitionedCall_1/mask_decoder/transformer/layers_._1/layer_norm2/moments/variance/reduction_indices", "shape": [1], "dtype": "int32"}, {"name": "StatefulPartitionedCall/efficient_sam/StatefulPartitionedCall_1/mask_decoder/transformer/layers_._1/layer_norm2/batchnorm/add/y", "shape": [], "dtype": "float32"}, {"name": "StatefulPartitionedCall/efficient_sam/StatefulPartitionedCall_1/mask_decoder/transformer/layers_._1/mlp/layers.0.0/Tensordot/free", "shape": [2], "dtype": "int32"}, {"name": "StatefulPartitionedCall/efficient_sam/StatefulPartitionedCall_1/mask_decoder/transformer/layers_._1/mlp/layers.0.0/Tensordot/GatherV2/axis", "shape": [], "dtype": "int32"}, {"name": "StatefulPartitionedCall/efficient_sam/StatefulPartitionedCall_1/mask_decoder/transformer/layers_._1/mlp/layers.0.0/Tensordot/Const_2", "shape": [1], "dtype": "int32"}, {"name": "StatefulPartitionedCall/efficient_sam/StatefulPartitionedCall_1/mask_decoder/transformer/layers_._1/mlp/layers.0.0/Tensordot/concat_1/axis", "shape": [], "dtype": "int32"}, {"name": "ConstantFolding/StatefulPartitionedCall/efficient_sam/StatefulPartitionedCall_1/mask_decoder/transformer/layers_._1/mlp/layers.0.0/Gelu/truediv_recip", "shape": [], "dtype": "float32"}, {"name": "StatefulPartitionedCall/efficient_sam/StatefulPartitionedCall_1/mask_decoder/transformer/layers_._1/mlp/fc/Tensordot/free", "shape": [2], "dtype": "int32"}, {"name": "StatefulPartitionedCall/efficient_sam/StatefulPartitionedCall_1/mask_decoder/transformer/layers_._1/mlp/fc/Tensordot/GatherV2/axis", "shape": [], "dtype": "int32"}, {"name": "StatefulPartitionedCall/efficient_sam/StatefulPartitionedCall_1/mask_decoder/transformer/layers_._1/mlp/fc/Tensordot/Const_2", "shape": [1], "dtype": "int32"}, {"name": "StatefulPartitionedCall/efficient_sam/StatefulPartitionedCall_1/mask_decoder/transformer/layers_._1/mlp/fc/Tensordot/concat_1/axis", "shape": [], "dtype": "int32"}, {"name": "StatefulPartitionedCall/efficient_sam/StatefulPartitionedCall_1/mask_decoder/transformer/layers_._1/layer_norm3/moments/mean/reduction_indices", "shape": [1], "dtype": "int32"}, {"name": "StatefulPartitionedCall/efficient_sam/StatefulPartitionedCall_1/mask_decoder/transformer/layers_._1/layer_norm3/moments/variance/reduction_indices", "shape": [1], "dtype": "int32"}, {"name": "StatefulPartitionedCall/efficient_sam/StatefulPartitionedCall_1/mask_decoder/transformer/layers_._1/layer_norm3/batchnorm/add/y", "shape": [], "dtype": "float32"}, {"name": "StatefulPartitionedCall/efficient_sam/StatefulPartitionedCall_1/mask_decoder/transformer/layers_._1/cross_attn_image_to_token/v_proj/Tensordot/free", "shape": [2], "dtype": "int32"}, {"name": "StatefulPartitionedCall/efficient_sam/StatefulPartitionedCall_1/mask_decoder/transformer/layers_._1/cross_attn_image_to_token/v_proj/Tensordot/GatherV2/axis", "shape": [], "dtype": "int32"}, {"name": "StatefulPartitionedCall/efficient_sam/StatefulPartitionedCall_1/mask_decoder/transformer/layers_._1/cross_attn_image_to_token/v_proj/Tensordot/Const_2", "shape": [1], "dtype": "int32"}, {"name": "StatefulPartitionedCall/efficient_sam/StatefulPartitionedCall_1/mask_decoder/transformer/layers_._1/cross_attn_image_to_token/v_proj/Tensordot/concat_1/axis", "shape": [], "dtype": "int32"}, {"name": "StatefulPartitionedCall/efficient_sam/StatefulPartitionedCall_1/mask_decoder/transformer/layers_._1/cross_attn_image_to_token/strided_slice_5/stack", "shape": [1], "dtype": "int32"}, {"name": "StatefulPartitionedCall/efficient_sam/StatefulPartitionedCall_1/mask_decoder/transformer/layers_._1/cross_attn_image_to_token/strided_slice_5/stack_1", "shape": [1], "dtype": "int32"}, {"name": "StatefulPartitionedCall/efficient_sam/StatefulPartitionedCall_1/mask_decoder/transformer/layers_._1/cross_attn_image_to_token/strided_slice_5/stack_2", "shape": [1], "dtype": "int32"}, {"name": "StatefulPartitionedCall/efficient_sam/StatefulPartitionedCall_1/mask_decoder/transformer/layers_._1/cross_attn_image_to_token/Reshape_2/shape/1", "shape": [], "dtype": "int32"}, {"name": "StatefulPartitionedCall/efficient_sam/StatefulPartitionedCall_1/mask_decoder/transformer/layers_._1/cross_attn_image_to_token/Reshape_2/shape/2", "shape": [], "dtype": "int32"}, {"name": "StatefulPartitionedCall/efficient_sam/StatefulPartitionedCall_1/mask_decoder/transformer/layers_._1/cross_attn_image_to_token/Reshape_2/shape/3", "shape": [], "dtype": "int32"}, {"name": "StatefulPartitionedCall/efficient_sam/StatefulPartitionedCall_1/mask_decoder/transformer/layers_._1/cross_attn_image_to_token/transpose_2/perm", "shape": [4], "dtype": "int32"}, {"name": "StatefulPartitionedCall/efficient_sam/StatefulPartitionedCall_1/mask_decoder/transformer/layers_._1/cross_attn_image_to_token/strided_slice_9/stack", "shape": [1], "dtype": "int32"}, {"name": "StatefulPartitionedCall/efficient_sam/StatefulPartitionedCall_1/mask_decoder/transformer/layers_._1/cross_attn_image_to_token/strided_slice_9/stack_1", "shape": [1], "dtype": "int32"}, {"name": "StatefulPartitionedCall/efficient_sam/StatefulPartitionedCall_1/mask_decoder/transformer/layers_._1/cross_attn_image_to_token/strided_slice_9/stack_2", "shape": [1], "dtype": "int32"}, {"name": "StatefulPartitionedCall/efficient_sam/StatefulPartitionedCall_1/mask_decoder/transformer/layers_._1/cross_attn_image_to_token/Reshape_3/shape/2", "shape": [], "dtype": "int32"}, {"name": "StatefulPartitionedCall/efficient_sam/StatefulPartitionedCall_1/mask_decoder/transformer/layers_._1/cross_attn_image_to_token/out_proj/Tensordot/free", "shape": [2], "dtype": "int32"}, {"name": "StatefulPartitionedCall/efficient_sam/StatefulPartitionedCall_1/mask_decoder/transformer/layers_._1/cross_attn_image_to_token/out_proj/Tensordot/GatherV2/axis", "shape": [], "dtype": "int32"}, {"name": "StatefulPartitionedCall/efficient_sam/StatefulPartitionedCall_1/mask_decoder/transformer/layers_._1/cross_attn_image_to_token/out_proj/Tensordot/Const_2", "shape": [1], "dtype": "int32"}, {"name": "StatefulPartitionedCall/efficient_sam/StatefulPartitionedCall_1/mask_decoder/transformer/layers_._1/cross_attn_image_to_token/out_proj/Tensordot/concat_1/axis", "shape": [], "dtype": "int32"}, {"name": "StatefulPartitionedCall/efficient_sam/StatefulPartitionedCall_1/mask_decoder/transformer/layers_._1/layer_norm4/moments/mean/reduction_indices", "shape": [1], "dtype": "int32"}, {"name": "StatefulPartitionedCall/efficient_sam/StatefulPartitionedCall_1/mask_decoder/transformer/layers_._1/layer_norm4/moments/variance/reduction_indices", "shape": [1], "dtype": "int32"}, {"name": "StatefulPartitionedCall/efficient_sam/StatefulPartitionedCall_1/mask_decoder/transformer/layers_._1/layer_norm4/batchnorm/add/y", "shape": [], "dtype": "float32"}, {"name": "StatefulPartitionedCall/efficient_sam/StatefulPartitionedCall_1/mask_decoder/transpose/perm", "shape": [3], "dtype": "int32"}, {"name": "StatefulPartitionedCall/efficient_sam/StatefulPartitionedCall_1/mask_decoder/strided_slice_2/stack", "shape": [5], "dtype": "int32"}, {"name": "StatefulPartitionedCall/efficient_sam/StatefulPartitionedCall_1/mask_decoder/strided_slice_2/stack_1", "shape": [5], "dtype": "int32"}, {"name": "StatefulPartitionedCall/efficient_sam/StatefulPartitionedCall_1/mask_decoder/strided_slice_2/stack_2", "shape": [5], "dtype": "int32"}, {"name": "StatefulPartitionedCall/efficient_sam/StatefulPartitionedCall_1/prompt_encoder/shared_image_embedding/mul_1/x", "shape": [], "dtype": "float32"}, {"name": "StatefulPartitionedCall/efficient_sam/StatefulPartitionedCall_1/prompt_encoder/shared_image_embedding/mul/x", "shape": [], "dtype": "float32"}, {"name": "StatefulPartitionedCall/efficient_sam/StatefulPartitionedCall_1/prompt_encoder/shared_image_embedding/strided_slice/stack", "shape": [3], "dtype": "int32"}, {"name": "StatefulPartitionedCall/efficient_sam/StatefulPartitionedCall_1/prompt_encoder/shared_image_embedding/strided_slice/stack_1", "shape": [3], "dtype": "int32"}, {"name": "StatefulPartitionedCall/efficient_sam/StatefulPartitionedCall_1/prompt_encoder/shared_image_embedding/strided_slice/stack_2", "shape": [3], "dtype": "int32"}, {"name": "ConstantFolding/StatefulPartitionedCall/efficient_sam/StatefulPartitionedCall_1/prompt_encoder/shared_image_embedding/truediv_recip", "shape": [], "dtype": "float32"}, {"name": "StatefulPartitionedCall/efficient_sam/StatefulPartitionedCall_1/strided_slice_1/stack", "shape": [2], "dtype": "int32"}, {"name": "StatefulPartitionedCall/efficient_sam/StatefulPartitionedCall_1/strided_slice_1/stack_1", "shape": [2], "dtype": "int32"}, {"name": "StatefulPartitionedCall/efficient_sam/StatefulPartitionedCall_1/strided_slice_1/stack_2", "shape": [2], "dtype": "int32"}, {"name": "StatefulPartitionedCall/efficient_sam/StatefulPartitionedCall_1/GreaterEqual/y", "shape": [], "dtype": "float32"}, {"name": "StatefulPartitionedCall/efficient_sam/StatefulPartitionedCall_1/strided_slice_2/stack", "shape": [2], "dtype": "int32"}, {"name": "StatefulPartitionedCall/efficient_sam/StatefulPartitionedCall_1/strided_slice_2/stack_1", "shape": [2], "dtype": "int32"}, {"name": "StatefulPartitionedCall/efficient_sam/StatefulPartitionedCall_1/strided_slice_2/stack_2", "shape": [2], "dtype": "int32"}, {"name": "StatefulPartitionedCall/efficient_sam/StatefulPartitionedCall_1/mul", "shape": [], "dtype": "float32"}, {"name": "StatefulPartitionedCall/efficient_sam/StatefulPartitionedCall_1/SelectV2/e", "shape": [], "dtype": "float32"}, {"name": "StatefulPartitionedCall/efficient_sam/StatefulPartitionedCall_1/strided_slice_3/stack", "shape": [2], "dtype": "int32"}, {"name": "StatefulPartitionedCall/efficient_sam/StatefulPartitionedCall_1/strided_slice_3/stack_1", "shape": [2], "dtype": "int32"}, {"name": "StatefulPartitionedCall/efficient_sam/StatefulPartitionedCall_1/strided_slice_3/stack_2", "shape": [2], "dtype": "int32"}, {"name": "StatefulPartitionedCall/efficient_sam/StatefulPartitionedCall_1/GreaterEqual_1/y", "shape": [], "dtype": "float32"}, {"name": "StatefulPartitionedCall/efficient_sam/StatefulPartitionedCall_1/strided_slice_4/stack", "shape": [2], "dtype": "int32"}, {"name": "StatefulPartitionedCall/efficient_sam/StatefulPartitionedCall_1/strided_slice_4/stack_1", "shape": [2], "dtype": "int32"}, {"name": "StatefulPartitionedCall/efficient_sam/StatefulPartitionedCall_1/strided_slice_4/stack_2", "shape": [2], "dtype": "int32"}, {"name": "StatefulPartitionedCall/efficient_sam/StatefulPartitionedCall_1/mul_1", "shape": [], "dtype": "float32"}, {"name": "StatefulPartitionedCall/efficient_sam/StatefulPartitionedCall_1/SelectV2_1/e", "shape": [], "dtype": "float32"}, {"name": "StatefulPartitionedCall/efficient_sam/StatefulPartitionedCall_1/PadV2/paddings", "shape": [4, 2], "dtype": "int32"}, {"name": "StatefulPartitionedCall/efficient_sam/StatefulPartitionedCall_1/PadV2/constant_values", "shape": [], "dtype": "float32"}, {"name": "StatefulPartitionedCall/efficient_sam/StatefulPartitionedCall_1/Reshape/shape/1", "shape": [], "dtype": "int32"}, {"name": "StatefulPartitionedCall/efficient_sam/StatefulPartitionedCall_1/Reshape/shape/2", "shape": [], "dtype": "int32"}, {"name": "StatefulPartitionedCall/efficient_sam/StatefulPartitionedCall_1/prompt_encoder/add/y", "shape": [], "dtype": "float32"}, {"name": "StatefulPartitionedCall/efficient_sam/StatefulPartitionedCall_1/prompt_encoder/shared_image_embedding/strided_slice_1/stack", "shape": [3], "dtype": "int32"}, {"name": "StatefulPartitionedCall/efficient_sam/StatefulPartitionedCall_1/prompt_encoder/shared_image_embedding/strided_slice_1/stack_1", "shape": [3], "dtype": "int32"}, {"name": "StatefulPartitionedCall/efficient_sam/StatefulPartitionedCall_1/prompt_encoder/shared_image_embedding/strided_slice_1/stack_2", "shape": [3], "dtype": "int32"}, {"name": "ConstantFolding/StatefulPartitionedCall/efficient_sam/StatefulPartitionedCall_1/prompt_encoder/shared_image_embedding/truediv_1_recip", "shape": [], "dtype": "float32"}, {"name": "StatefulPartitionedCall/efficient_sam/StatefulPartitionedCall_1/prompt_encoder/shared_image_embedding/sub/y", "shape": [], "dtype": "float32"}, {"name": "StatefulPartitionedCall/efficient_sam/StatefulPartitionedCall_1/prompt_encoder/shared_image_embedding/concat/axis", "shape": [], "dtype": "int32"}, {"name": "StatefulPartitionedCall/efficient_sam/StatefulPartitionedCall_1/prompt_encoder/strided_slice_4", "shape": [1, 1, 256], "dtype": "float32"}, {"name": "StatefulPartitionedCall/efficient_sam/StatefulPartitionedCall_1/prompt_encoder/Equal/y", "shape": [], "dtype": "float32"}, {"name": "StatefulPartitionedCall/efficient_sam/StatefulPartitionedCall_1/prompt_encoder/strided_slice/stack", "shape": [3], "dtype": "int32"}, {"name": "StatefulPartitionedCall/efficient_sam/StatefulPartitionedCall_1/prompt_encoder/strided_slice/stack_1", "shape": [3], "dtype": "int32"}, {"name": "StatefulPartitionedCall/efficient_sam/StatefulPartitionedCall_1/prompt_encoder/strided_slice/stack_2", "shape": [3], "dtype": "int32"}, {"name": "StatefulPartitionedCall/efficient_sam/StatefulPartitionedCall_1/prompt_encoder/strided_slice_5", "shape": [1, 1, 256], "dtype": "float32"}, {"name": "StatefulPartitionedCall/efficient_sam/StatefulPartitionedCall_1/prompt_encoder/Equal_1/y", "shape": [], "dtype": "float32"}, {"name": "StatefulPartitionedCall/efficient_sam/StatefulPartitionedCall_1/prompt_encoder/strided_slice_1/stack", "shape": [3], "dtype": "int32"}, {"name": "StatefulPartitionedCall/efficient_sam/StatefulPartitionedCall_1/prompt_encoder/strided_slice_1/stack_1", "shape": [3], "dtype": "int32"}, {"name": "StatefulPartitionedCall/efficient_sam/StatefulPartitionedCall_1/prompt_encoder/strided_slice_1/stack_2", "shape": [3], "dtype": "int32"}, {"name": "StatefulPartitionedCall/efficient_sam/StatefulPartitionedCall_1/prompt_encoder/strided_slice_6", "shape": [1, 1, 256], "dtype": "float32"}, {"name": "StatefulPartitionedCall/efficient_sam/StatefulPartitionedCall_1/prompt_encoder/Equal_2/y", "shape": [], "dtype": "float32"}, {"name": "StatefulPartitionedCall/efficient_sam/StatefulPartitionedCall_1/prompt_encoder/strided_slice_2/stack", "shape": [3], "dtype": "int32"}, {"name": "StatefulPartitionedCall/efficient_sam/StatefulPartitionedCall_1/prompt_encoder/strided_slice_2/stack_1", "shape": [3], "dtype": "int32"}, {"name": "StatefulPartitionedCall/efficient_sam/StatefulPartitionedCall_1/prompt_encoder/strided_slice_2/stack_2", "shape": [3], "dtype": "int32"}, {"name": "StatefulPartitionedCall/efficient_sam/StatefulPartitionedCall_1/prompt_encoder/strided_slice_7", "shape": [1, 1, 256], "dtype": "float32"}, {"name": "StatefulPartitionedCall/efficient_sam/StatefulPartitionedCall_1/PadV2_1/paddings", "shape": [3, 2], "dtype": "int32"}, {"name": "StatefulPartitionedCall/efficient_sam/StatefulPartitionedCall_1/PadV2_1/constant_values", "shape": [], "dtype": "float32"}, {"name": "StatefulPartitionedCall/efficient_sam/StatefulPartitionedCall_1/Reshape_1/shape/1", "shape": [], "dtype": "int32"}, {"name": "StatefulPartitionedCall/efficient_sam/StatefulPartitionedCall_1/prompt_encoder/Equal_3/y", "shape": [], "dtype": "float32"}, {"name": "StatefulPartitionedCall/efficient_sam/StatefulPartitionedCall_1/prompt_encoder/strided_slice_3/stack", "shape": [3], "dtype": "int32"}, {"name": "StatefulPartitionedCall/efficient_sam/StatefulPartitionedCall_1/prompt_encoder/strided_slice_3/stack_1", "shape": [3], "dtype": "int32"}, {"name": "StatefulPartitionedCall/efficient_sam/StatefulPartitionedCall_1/prompt_encoder/strided_slice_3/stack_2", "shape": [3], "dtype": "int32"}, {"name": "StatefulPartitionedCall/efficient_sam/StatefulPartitionedCall_1/strided_slice/stack", "shape": [1], "dtype": "int32"}, {"name": "StatefulPartitionedCall/efficient_sam/StatefulPartitionedCall_1/strided_slice/stack_1", "shape": [1], "dtype": "int32"}, {"name": "StatefulPartitionedCall/efficient_sam/StatefulPartitionedCall_1/strided_slice/stack_2", "shape": [1], "dtype": "int32"}, {"name": "StatefulPartitionedCall/efficient_sam/StatefulPartitionedCall_1/Reshape_2/shape/1", "shape": [], "dtype": "int32"}, {"name": "StatefulPartitionedCall/efficient_sam/StatefulPartitionedCall_1/Reshape_2/shape/2", "shape": [], "dtype": "int32"}, {"name": "StatefulPartitionedCall/efficient_sam/StatefulPartitionedCall_1/Reshape_2/shape/3", "shape": [], "dtype": "int32"}, {"name": "StatefulPartitionedCall/efficient_sam/StatefulPartitionedCall_1/mask_decoder/strided_slice/stack", "shape": [1], "dtype": "int32"}, {"name": "StatefulPartitionedCall/efficient_sam/StatefulPartitionedCall_1/mask_decoder/strided_slice/stack_1", "shape": [1], "dtype": "int32"}, {"name": "StatefulPartitionedCall/efficient_sam/StatefulPartitionedCall_1/mask_decoder/strided_slice/stack_2", "shape": [1], "dtype": "int32"}, {"name": "StatefulPartitionedCall/efficient_sam/StatefulPartitionedCall_1/mask_decoder/Reshape/shape/1", "shape": [], "dtype": "int32"}, {"name": "StatefulPartitionedCall/efficient_sam/StatefulPartitionedCall_1/mask_decoder/Reshape/shape/2", "shape": [], "dtype": "int32"}, {"name": "StatefulPartitionedCall/efficient_sam/StatefulPartitionedCall_1/mask_decoder/Reshape/shape/3", "shape": [], "dtype": "int32"}, {"name": "StatefulPartitionedCall/efficient_sam/StatefulPartitionedCall_1/mask_decoder/strided_slice_3/stack", "shape": [1], "dtype": "int32"}, {"name": "StatefulPartitionedCall/efficient_sam/StatefulPartitionedCall_1/mask_decoder/strided_slice_3/stack_1", "shape": [1], "dtype": "int32"}, {"name": "StatefulPartitionedCall/efficient_sam/StatefulPartitionedCall_1/mask_decoder/strided_slice_3/stack_2", "shape": [1], "dtype": "int32"}, {"name": "StatefulPartitionedCall/efficient_sam/StatefulPartitionedCall_1/mask_decoder/Reshape_2/shape/1", "shape": [], "dtype": "int32"}, {"name": "StatefulPartitionedCall/efficient_sam/StatefulPartitionedCall_1/mask_decoder/Reshape_2/shape/2", "shape": [], "dtype": "int32"}, {"name": "StatefulPartitionedCall/efficient_sam/StatefulPartitionedCall_1/mask_decoder/Reshape_2/shape/3", "shape": [], "dtype": "int32"}, {"name": "StatefulPartitionedCall/efficient_sam/StatefulPartitionedCall_1/mask_decoder/final_output_upscaling_layers/0.1/moments/mean/reduction_indices", "shape": [1], "dtype": "int32"}, {"name": "StatefulPartitionedCall/efficient_sam/StatefulPartitionedCall_1/mask_decoder/final_output_upscaling_layers/0.1/moments/variance/reduction_indices", "shape": [1], "dtype": "int32"}, {"name": "StatefulPartitionedCall/efficient_sam/StatefulPartitionedCall_1/mask_decoder/final_output_upscaling_layers/0.1/batchnorm/add/y", "shape": [], "dtype": "float32"}, {"name": "StatefulPartitionedCall/efficient_sam/StatefulPartitionedCall_1/mask_decoder/final_output_upscaling_layers/0.1/Reshape", "shape": [1, 64, 1, 1], "dtype": "float32"}, {"name": "ConstantFolding/StatefulPartitionedCall/efficient_sam/StatefulPartitionedCall_1/mask_decoder/final_output_upscaling_layers/Gelu/truediv_recip", "shape": [], "dtype": "float32"}, {"name": "ConstantFolding/StatefulPartitionedCall/efficient_sam/StatefulPartitionedCall_1/mask_decoder/final_output_upscaling_layers/Gelu_1/truediv_recip", "shape": [], "dtype": "float32"}, {"name": "StatefulPartitionedCall/efficient_sam/StatefulPartitionedCall_1/mask_decoder/strided_slice_13/stack", "shape": [1], "dtype": "int32"}, {"name": "StatefulPartitionedCall/efficient_sam/StatefulPartitionedCall_1/mask_decoder/strided_slice_13/stack_1", "shape": [1], "dtype": "int32"}, {"name": "StatefulPartitionedCall/efficient_sam/StatefulPartitionedCall_1/mask_decoder/strided_slice_13/stack_2", "shape": [1], "dtype": "int32"}, {"name": "StatefulPartitionedCall/efficient_sam/StatefulPartitionedCall_1/mask_decoder/Reshape_4/shape/1", "shape": [], "dtype": "int32"}, {"name": "StatefulPartitionedCall/efficient_sam/StatefulPartitionedCall_1/mask_decoder/Reshape_4/shape/2", "shape": [], "dtype": "int32"}, {"name": "StatefulPartitionedCall/efficient_sam/StatefulPartitionedCall_1/mask_decoder/Reshape_4/shape/3", "shape": [], "dtype": "int32"}, {"name": "StatefulPartitionedCall/efficient_sam/StatefulPartitionedCall_1/mask_decoder/strided_slice_14/stack", "shape": [3], "dtype": "int32"}, {"name": "StatefulPartitionedCall/efficient_sam/StatefulPartitionedCall_1/mask_decoder/strided_slice_14/stack_1", "shape": [3], "dtype": "int32"}, {"name": "StatefulPartitionedCall/efficient_sam/StatefulPartitionedCall_1/mask_decoder/strided_slice_14/stack_2", "shape": [3], "dtype": "int32"}, {"name": "StatefulPartitionedCall/efficient_sam/StatefulPartitionedCall_1/strided_slice_6/stack", "shape": [1], "dtype": "int32"}, {"name": "StatefulPartitionedCall/efficient_sam/StatefulPartitionedCall_1/strided_slice_6/stack_1", "shape": [1], "dtype": "int32"}, {"name": "StatefulPartitionedCall/efficient_sam/StatefulPartitionedCall_1/strided_slice_6/stack_2", "shape": [1], "dtype": "int32"}, {"name": "StatefulPartitionedCall/efficient_sam/StatefulPartitionedCall_1/argsort/strided_slice/stack", "shape": [1], "dtype": "int32"}, {"name": "StatefulPartitionedCall/efficient_sam/StatefulPartitionedCall_1/argsort/strided_slice/stack_1", "shape": [1], "dtype": "int32"}, {"name": "StatefulPartitionedCall/efficient_sam/StatefulPartitionedCall_1/argsort/strided_slice/stack_2", "shape": [1], "dtype": "int32"}, {"name": "StatefulPartitionedCall/efficient_sam/StatefulPartitionedCall_1/strided_slice_7/stack", "shape": [3], "dtype": "int32"}, {"name": "StatefulPartitionedCall/efficient_sam/StatefulPartitionedCall_1/strided_slice_7/stack_1", "shape": [3], "dtype": "int32"}, {"name": "StatefulPartitionedCall/efficient_sam/StatefulPartitionedCall_1/strided_slice_7/stack_2", "shape": [3], "dtype": "int32"}, {"name": "StatefulPartitionedCall/efficient_sam/StatefulPartitionedCall_1/GatherV2/axis", "shape": [], "dtype": "int32"}, {"name": "StatefulPartitionedCall/efficient_sam/StatefulPartitionedCall_1/MatMul/ReadVariableOp", "shape": [2, 128], "dtype": "float32"}, {"name": "StatefulPartitionedCall/efficient_sam/StatefulPartitionedCall_1/mask_decoder/transformer/norm_final_attn/batchnorm/ReadVariableOp", "shape": [256], "dtype": "float32"}, {"name": "StatefulPartitionedCall/efficient_sam/StatefulPartitionedCall_1/mask_decoder/transformer/norm_final_attn/batchnorm/mul/ReadVariableOp", "shape": [256], "dtype": "float32"}, {"name": "StatefulPartitionedCall/efficient_sam/StatefulPartitionedCall_1/mask_decoder/final_output_upscaling_layers/0.0/BiasAdd/ReadVariableOp", "shape": [64], "dtype": "float32"}, {"name": "StatefulPartitionedCall/efficient_sam/StatefulPartitionedCall_1/mask_decoder/final_output_upscaling_layers/0.0/conv2d_transpose/ReadVariableOp", "shape": [2, 2, 64, 256], "dtype": "float32"}, {"name": "StatefulPartitionedCall/efficient_sam/StatefulPartitionedCall_1/prompt_encoder/shared_image_embedding/MatMul/ReadVariableOp", "shape": [2, 128], "dtype": "float32"}, {"name": "StatefulPartitionedCall/efficient_sam/StatefulPartitionedCall_1/mask_decoder/transformer/layers_._1/self_attn/v_proj/Tensordot/ReadVariableOp", "shape": [256, 256], "dtype": "float32"}, {"name": "StatefulPartitionedCall/efficient_sam/StatefulPartitionedCall_1/mask_decoder/final_output_upscaling_layers/1.0/BiasAdd/ReadVariableOp", "shape": [32], "dtype": "float32"}, {"name": "StatefulPartitionedCall/efficient_sam/StatefulPartitionedCall_1/mask_decoder/final_output_upscaling_layers/1.0/conv2d_transpose/ReadVariableOp", "shape": [2, 2, 32, 64], "dtype": "float32"}, {"name": "StatefulPartitionedCall/efficient_sam/StatefulPartitionedCall_1/mask_decoder/iou_prediction_head/fc/BiasAdd/ReadVariableOp", "shape": [4], "dtype": "float32"}, {"name": "StatefulPartitionedCall/efficient_sam/StatefulPartitionedCall_1/mask_decoder/iou_prediction_head/fc/MatMul/ReadVariableOp", "shape": [256, 4], "dtype": "float32"}, {"name": "StatefulPartitionedCall/efficient_sam/StatefulPartitionedCall_1/mask_decoder/iou_prediction_head/layers.0.0/BiasAdd/ReadVariableOp", "shape": [256], "dtype": "float32"}, {"name": "StatefulPartitionedCall/efficient_sam/StatefulPartitionedCall_1/mask_decoder/iou_prediction_head/layers.0.0/MatMul/ReadVariableOp", "shape": [256, 256], "dtype": "float32"}, {"name": "StatefulPartitionedCall/efficient_sam/StatefulPartitionedCall_1/mask_decoder/iou_prediction_head/layers.1.0/BiasAdd/ReadVariableOp", "shape": [256], "dtype": "float32"}, {"name": "StatefulPartitionedCall/efficient_sam/StatefulPartitionedCall_1/mask_decoder/iou_prediction_head/layers.1.0/MatMul/ReadVariableOp", "shape": [256, 256], "dtype": "float32"}, {"name": "StatefulPartitionedCall/efficient_sam/StatefulPartitionedCall_1/mask_decoder/output_hypernetworks_mlps_._0/fc/BiasAdd/ReadVariableOp", "shape": [32], "dtype": "float32"}, {"name": "StatefulPartitionedCall/efficient_sam/StatefulPartitionedCall_1/mask_decoder/output_hypernetworks_mlps_._0/fc/MatMul/ReadVariableOp", "shape": [256, 32], "dtype": "float32"}, {"name": "StatefulPartitionedCall/efficient_sam/StatefulPartitionedCall_1/mask_decoder/output_hypernetworks_mlps_._0/layers.0.0/BiasAdd/ReadVariableOp", "shape": [256], "dtype": "float32"}, {"name": "StatefulPartitionedCall/efficient_sam/StatefulPartitionedCall_1/mask_decoder/output_hypernetworks_mlps_._0/layers.0.0/MatMul/ReadVariableOp", "shape": [256, 256], "dtype": "float32"}, {"name": "StatefulPartitionedCall/efficient_sam/StatefulPartitionedCall_1/mask_decoder/output_hypernetworks_mlps_._0/layers.1.0/BiasAdd/ReadVariableOp", "shape": [256], "dtype": "float32"}, {"name": "StatefulPartitionedCall/efficient_sam/StatefulPartitionedCall_1/mask_decoder/output_hypernetworks_mlps_._0/layers.1.0/MatMul/ReadVariableOp", "shape": [256, 256], "dtype": "float32"}, {"name": "StatefulPartitionedCall/efficient_sam/StatefulPartitionedCall_1/mask_decoder/output_hypernetworks_mlps_._1/fc/BiasAdd/ReadVariableOp", "shape": [32], "dtype": "float32"}, {"name": "StatefulPartitionedCall/efficient_sam/StatefulPartitionedCall_1/mask_decoder/output_hypernetworks_mlps_._1/fc/MatMul/ReadVariableOp", "shape": [256, 32], "dtype": "float32"}, {"name": "StatefulPartitionedCall/efficient_sam/StatefulPartitionedCall_1/mask_decoder/output_hypernetworks_mlps_._1/layers.0.0/BiasAdd/ReadVariableOp", "shape": [256], "dtype": "float32"}, {"name": "StatefulPartitionedCall/efficient_sam/StatefulPartitionedCall_1/mask_decoder/output_hypernetworks_mlps_._1/layers.0.0/MatMul/ReadVariableOp", "shape": [256, 256], "dtype": "float32"}, {"name": "StatefulPartitionedCall/efficient_sam/StatefulPartitionedCall_1/mask_decoder/output_hypernetworks_mlps_._1/layers.1.0/BiasAdd/ReadVariableOp", "shape": [256], "dtype": "float32"}, {"name": "StatefulPartitionedCall/efficient_sam/StatefulPartitionedCall_1/mask_decoder/output_hypernetworks_mlps_._1/layers.1.0/MatMul/ReadVariableOp", "shape": [256, 256], "dtype": "float32"}, {"name": "StatefulPartitionedCall/efficient_sam/StatefulPartitionedCall_1/mask_decoder/output_hypernetworks_mlps_._2/fc/BiasAdd/ReadVariableOp", "shape": [32], "dtype": "float32"}, {"name": "StatefulPartitionedCall/efficient_sam/StatefulPartitionedCall_1/mask_decoder/output_hypernetworks_mlps_._2/fc/MatMul/ReadVariableOp", "shape": [256, 32], "dtype": "float32"}, {"name": "StatefulPartitionedCall/efficient_sam/StatefulPartitionedCall_1/mask_decoder/output_hypernetworks_mlps_._2/layers.0.0/BiasAdd/ReadVariableOp", "shape": [256], "dtype": "float32"}, {"name": "StatefulPartitionedCall/efficient_sam/StatefulPartitionedCall_1/mask_decoder/output_hypernetworks_mlps_._2/layers.0.0/MatMul/ReadVariableOp", "shape": [256, 256], "dtype": "float32"}, {"name": "StatefulPartitionedCall/efficient_sam/StatefulPartitionedCall_1/mask_decoder/output_hypernetworks_mlps_._2/layers.1.0/BiasAdd/ReadVariableOp", "shape": [256], "dtype": "float32"}, {"name": "StatefulPartitionedCall/efficient_sam/StatefulPartitionedCall_1/mask_decoder/output_hypernetworks_mlps_._2/layers.1.0/MatMul/ReadVariableOp", "shape": [256, 256], "dtype": "float32"}, {"name": "StatefulPartitionedCall/efficient_sam/StatefulPartitionedCall_1/mask_decoder/output_hypernetworks_mlps_._3/fc/BiasAdd/ReadVariableOp", "shape": [32], "dtype": "float32"}, {"name": "StatefulPartitionedCall/efficient_sam/StatefulPartitionedCall_1/mask_decoder/output_hypernetworks_mlps_._3/fc/MatMul/ReadVariableOp", "shape": [256, 32], "dtype": "float32"}, {"name": "StatefulPartitionedCall/efficient_sam/StatefulPartitionedCall_1/mask_decoder/output_hypernetworks_mlps_._3/layers.0.0/BiasAdd/ReadVariableOp", "shape": [256], "dtype": "float32"}, {"name": "StatefulPartitionedCall/efficient_sam/StatefulPartitionedCall_1/mask_decoder/output_hypernetworks_mlps_._3/layers.0.0/MatMul/ReadVariableOp", "shape": [256, 256], "dtype": "float32"}, {"name": "StatefulPartitionedCall/efficient_sam/StatefulPartitionedCall_1/mask_decoder/output_hypernetworks_mlps_._3/layers.1.0/BiasAdd/ReadVariableOp", "shape": [256], "dtype": "float32"}, {"name": "StatefulPartitionedCall/efficient_sam/StatefulPartitionedCall_1/mask_decoder/output_hypernetworks_mlps_._3/layers.1.0/MatMul/ReadVariableOp", "shape": [256, 256], "dtype": "float32"}, {"name": "StatefulPartitionedCall/efficient_sam/StatefulPartitionedCall_1/mask_decoder/transformer/final_attn_token_to_image/k_proj/BiasAdd/ReadVariableOp", "shape": [128], "dtype": "float32"}, {"name": "StatefulPartitionedCall/efficient_sam/StatefulPartitionedCall_1/mask_decoder/transformer/final_attn_token_to_image/k_proj/Tensordot/ReadVariableOp", "shape": [256, 128], "dtype": "float32"}, {"name": "StatefulPartitionedCall/efficient_sam/StatefulPartitionedCall_1/mask_decoder/transformer/final_attn_token_to_image/out_proj/BiasAdd/ReadVariableOp", "shape": [256], "dtype": "float32"}, {"name": "StatefulPartitionedCall/efficient_sam/StatefulPartitionedCall_1/mask_decoder/transformer/final_attn_token_to_image/out_proj/Tensordot/ReadVariableOp", "shape": [128, 256], "dtype": "float32"}, {"name": "StatefulPartitionedCall/efficient_sam/StatefulPartitionedCall_1/mask_decoder/transformer/final_attn_token_to_image/q_proj/BiasAdd/ReadVariableOp", "shape": [128], "dtype": "float32"}, {"name": "StatefulPartitionedCall/efficient_sam/StatefulPartitionedCall_1/mask_decoder/transformer/final_attn_token_to_image/q_proj/Tensordot/ReadVariableOp", "shape": [256, 128], "dtype": "float32"}, {"name": "StatefulPartitionedCall/efficient_sam/StatefulPartitionedCall_1/mask_decoder/transformer/final_attn_token_to_image/v_proj/BiasAdd/ReadVariableOp", "shape": [128], "dtype": "float32"}, {"name": "StatefulPartitionedCall/efficient_sam/StatefulPartitionedCall_1/mask_decoder/transformer/final_attn_token_to_image/v_proj/Tensordot/ReadVariableOp", "shape": [256, 128], "dtype": "float32"}, {"name": "StatefulPartitionedCall/efficient_sam/StatefulPartitionedCall_1/mask_decoder/transformer/layers_._0/cross_attn_image_to_token/k_proj/BiasAdd/ReadVariableOp", "shape": [128], "dtype": "float32"}, {"name": "StatefulPartitionedCall/efficient_sam/StatefulPartitionedCall_1/mask_decoder/transformer/layers_._0/cross_attn_image_to_token/k_proj/Tensordot/ReadVariableOp", "shape": [256, 128], "dtype": "float32"}, {"name": "StatefulPartitionedCall/efficient_sam/StatefulPartitionedCall_1/mask_decoder/transformer/layers_._0/cross_attn_image_to_token/out_proj/BiasAdd/ReadVariableOp", "shape": [256], "dtype": "float32"}, {"name": "StatefulPartitionedCall/efficient_sam/StatefulPartitionedCall_1/mask_decoder/transformer/layers_._0/cross_attn_image_to_token/out_proj/Tensordot/ReadVariableOp", "shape": [128, 256], "dtype": "float32"}, {"name": "StatefulPartitionedCall/efficient_sam/StatefulPartitionedCall_1/mask_decoder/transformer/layers_._0/cross_attn_image_to_token/q_proj/BiasAdd/ReadVariableOp", "shape": [128], "dtype": "float32"}, {"name": "StatefulPartitionedCall/efficient_sam/StatefulPartitionedCall_1/mask_decoder/transformer/layers_._0/cross_attn_image_to_token/q_proj/Tensordot/ReadVariableOp", "shape": [256, 128], "dtype": "float32"}, {"name": "StatefulPartitionedCall/efficient_sam/StatefulPartitionedCall_1/mask_decoder/transformer/layers_._0/cross_attn_image_to_token/v_proj/BiasAdd/ReadVariableOp", "shape": [128], "dtype": "float32"}, {"name": "StatefulPartitionedCall/efficient_sam/StatefulPartitionedCall_1/mask_decoder/transformer/layers_._0/cross_attn_image_to_token/v_proj/Tensordot/ReadVariableOp", "shape": [256, 128], "dtype": "float32"}, {"name": "StatefulPartitionedCall/efficient_sam/StatefulPartitionedCall_1/mask_decoder/transformer/layers_._0/cross_attn_token_to_image/k_proj/BiasAdd/ReadVariableOp", "shape": [128], "dtype": "float32"}, {"name": "StatefulPartitionedCall/efficient_sam/StatefulPartitionedCall_1/mask_decoder/transformer/layers_._0/cross_attn_token_to_image/k_proj/Tensordot/ReadVariableOp", "shape": [256, 128], "dtype": "float32"}, {"name": "StatefulPartitionedCall/efficient_sam/StatefulPartitionedCall_1/mask_decoder/transformer/layers_._0/cross_attn_token_to_image/out_proj/BiasAdd/ReadVariableOp", "shape": [256], "dtype": "float32"}, {"name": "StatefulPartitionedCall/efficient_sam/StatefulPartitionedCall_1/mask_decoder/transformer/layers_._0/cross_attn_token_to_image/out_proj/Tensordot/ReadVariableOp", "shape": [128, 256], "dtype": "float32"}, {"name": "StatefulPartitionedCall/efficient_sam/StatefulPartitionedCall_1/mask_decoder/transformer/layers_._0/cross_attn_token_to_image/q_proj/BiasAdd/ReadVariableOp", "shape": [128], "dtype": "float32"}, {"name": "StatefulPartitionedCall/efficient_sam/StatefulPartitionedCall_1/mask_decoder/transformer/layers_._0/cross_attn_token_to_image/q_proj/Tensordot/ReadVariableOp", "shape": [256, 128], "dtype": "float32"}, {"name": "StatefulPartitionedCall/efficient_sam/StatefulPartitionedCall_1/mask_decoder/transformer/layers_._0/cross_attn_token_to_image/v_proj/BiasAdd/ReadVariableOp", "shape": [128], "dtype": "float32"}, {"name": "StatefulPartitionedCall/efficient_sam/StatefulPartitionedCall_1/mask_decoder/transformer/layers_._0/cross_attn_token_to_image/v_proj/Tensordot/ReadVariableOp", "shape": [256, 128], "dtype": "float32"}, {"name": "StatefulPartitionedCall/efficient_sam/StatefulPartitionedCall_1/mask_decoder/transformer/layers_._0/layer_norm1/batchnorm/ReadVariableOp", "shape": [256], "dtype": "float32"}, {"name": "StatefulPartitionedCall/efficient_sam/StatefulPartitionedCall_1/mask_decoder/transformer/layers_._0/layer_norm1/batchnorm/mul/ReadVariableOp", "shape": [256], "dtype": "float32"}, {"name": "StatefulPartitionedCall/efficient_sam/StatefulPartitionedCall_1/mask_decoder/transformer/layers_._0/layer_norm2/batchnorm/ReadVariableOp", "shape": [256], "dtype": "float32"}, {"name": "StatefulPartitionedCall/efficient_sam/StatefulPartitionedCall_1/mask_decoder/transformer/layers_._0/layer_norm2/batchnorm/mul/ReadVariableOp", "shape": [256], "dtype": "float32"}, {"name": "StatefulPartitionedCall/efficient_sam/StatefulPartitionedCall_1/mask_decoder/transformer/layers_._0/layer_norm3/batchnorm/ReadVariableOp", "shape": [256], "dtype": "float32"}, {"name": "StatefulPartitionedCall/efficient_sam/StatefulPartitionedCall_1/mask_decoder/transformer/layers_._0/layer_norm3/batchnorm/mul/ReadVariableOp", "shape": [256], "dtype": "float32"}, {"name": "StatefulPartitionedCall/efficient_sam/StatefulPartitionedCall_1/mask_decoder/transformer/layers_._0/layer_norm4/batchnorm/ReadVariableOp", "shape": [256], "dtype": "float32"}, {"name": "StatefulPartitionedCall/efficient_sam/StatefulPartitionedCall_1/mask_decoder/transformer/layers_._0/layer_norm4/batchnorm/mul/ReadVariableOp", "shape": [256], "dtype": "float32"}, {"name": "StatefulPartitionedCall/efficient_sam/StatefulPartitionedCall_1/mask_decoder/transformer/layers_._0/mlp/fc/BiasAdd/ReadVariableOp", "shape": [256], "dtype": "float32"}, {"name": "StatefulPartitionedCall/efficient_sam/StatefulPartitionedCall_1/mask_decoder/transformer/layers_._0/mlp/fc/Tensordot/ReadVariableOp", "shape": [2048, 256], "dtype": "float32"}, {"name": "StatefulPartitionedCall/efficient_sam/StatefulPartitionedCall_1/mask_decoder/transformer/layers_._0/mlp/layers.0.0/BiasAdd/ReadVariableOp", "shape": [2048], "dtype": "float32"}, {"name": "StatefulPartitionedCall/efficient_sam/StatefulPartitionedCall_1/mask_decoder/transformer/layers_._0/mlp/layers.0.0/Tensordot/ReadVariableOp", "shape": [256, 2048], "dtype": "float32"}, {"name": "StatefulPartitionedCall/efficient_sam/StatefulPartitionedCall_1/mask_decoder/transformer/layers_._0/self_attn/k_proj/BiasAdd/ReadVariableOp", "shape": [256], "dtype": "float32"}, {"name": "StatefulPartitionedCall/efficient_sam/StatefulPartitionedCall_1/mask_decoder/transformer/layers_._0/self_attn/k_proj/Tensordot/ReadVariableOp", "shape": [256, 256], "dtype": "float32"}, {"name": "StatefulPartitionedCall/efficient_sam/StatefulPartitionedCall_1/mask_decoder/transformer/layers_._0/self_attn/out_proj/BiasAdd/ReadVariableOp", "shape": [256], "dtype": "float32"}, {"name": "StatefulPartitionedCall/efficient_sam/StatefulPartitionedCall_1/mask_decoder/transformer/layers_._0/self_attn/out_proj/Tensordot/ReadVariableOp", "shape": [256, 256], "dtype": "float32"}, {"name": "StatefulPartitionedCall/efficient_sam/StatefulPartitionedCall_1/mask_decoder/transformer/layers_._0/self_attn/q_proj/BiasAdd/ReadVariableOp", "shape": [256], "dtype": "float32"}, {"name": "StatefulPartitionedCall/efficient_sam/StatefulPartitionedCall_1/mask_decoder/transformer/layers_._0/self_attn/q_proj/Tensordot/ReadVariableOp", "shape": [256, 256], "dtype": "float32"}, {"name": "StatefulPartitionedCall/efficient_sam/StatefulPartitionedCall_1/mask_decoder/transformer/layers_._0/self_attn/v_proj/BiasAdd/ReadVariableOp", "shape": [256], "dtype": "float32"}, {"name": "StatefulPartitionedCall/efficient_sam/StatefulPartitionedCall_1/mask_decoder/transformer/layers_._0/self_attn/v_proj/Tensordot/ReadVariableOp", "shape": [256, 256], "dtype": "float32"}, {"name": "StatefulPartitionedCall/efficient_sam/StatefulPartitionedCall_1/mask_decoder/transformer/layers_._1/cross_attn_image_to_token/k_proj/BiasAdd/ReadVariableOp", "shape": [128], "dtype": "float32"}, {"name": "StatefulPartitionedCall/efficient_sam/StatefulPartitionedCall_1/mask_decoder/transformer/layers_._1/cross_attn_image_to_token/k_proj/Tensordot/ReadVariableOp", "shape": [256, 128], "dtype": "float32"}, {"name": "StatefulPartitionedCall/efficient_sam/StatefulPartitionedCall_1/mask_decoder/transformer/layers_._1/cross_attn_image_to_token/out_proj/BiasAdd/ReadVariableOp", "shape": [256], "dtype": "float32"}, {"name": "StatefulPartitionedCall/efficient_sam/StatefulPartitionedCall_1/mask_decoder/transformer/layers_._1/cross_attn_image_to_token/out_proj/Tensordot/ReadVariableOp", "shape": [128, 256], "dtype": "float32"}, {"name": "StatefulPartitionedCall/efficient_sam/StatefulPartitionedCall_1/mask_decoder/transformer/layers_._1/cross_attn_image_to_token/q_proj/BiasAdd/ReadVariableOp", "shape": [128], "dtype": "float32"}, {"name": "StatefulPartitionedCall/efficient_sam/StatefulPartitionedCall_1/mask_decoder/transformer/layers_._1/cross_attn_image_to_token/q_proj/Tensordot/ReadVariableOp", "shape": [256, 128], "dtype": "float32"}, {"name": "StatefulPartitionedCall/efficient_sam/StatefulPartitionedCall_1/mask_decoder/transformer/layers_._1/cross_attn_image_to_token/v_proj/BiasAdd/ReadVariableOp", "shape": [128], "dtype": "float32"}, {"name": "StatefulPartitionedCall/efficient_sam/StatefulPartitionedCall_1/mask_decoder/transformer/layers_._1/cross_attn_image_to_token/v_proj/Tensordot/ReadVariableOp", "shape": [256, 128], "dtype": "float32"}, {"name": "StatefulPartitionedCall/efficient_sam/StatefulPartitionedCall_1/mask_decoder/transformer/layers_._1/cross_attn_token_to_image/k_proj/BiasAdd/ReadVariableOp", "shape": [128], "dtype": "float32"}, {"name": "StatefulPartitionedCall/efficient_sam/StatefulPartitionedCall_1/mask_decoder/transformer/layers_._1/cross_attn_token_to_image/k_proj/Tensordot/ReadVariableOp", "shape": [256, 128], "dtype": "float32"}, {"name": "StatefulPartitionedCall/efficient_sam/StatefulPartitionedCall_1/mask_decoder/transformer/layers_._1/cross_attn_token_to_image/out_proj/BiasAdd/ReadVariableOp", "shape": [256], "dtype": "float32"}, {"name": "StatefulPartitionedCall/efficient_sam/StatefulPartitionedCall_1/mask_decoder/transformer/layers_._1/cross_attn_token_to_image/out_proj/Tensordot/ReadVariableOp", "shape": [128, 256], "dtype": "float32"}, {"name": "StatefulPartitionedCall/efficient_sam/StatefulPartitionedCall_1/mask_decoder/transformer/layers_._1/cross_attn_token_to_image/q_proj/BiasAdd/ReadVariableOp", "shape": [128], "dtype": "float32"}, {"name": "StatefulPartitionedCall/efficient_sam/StatefulPartitionedCall_1/mask_decoder/transformer/layers_._1/cross_attn_token_to_image/q_proj/Tensordot/ReadVariableOp", "shape": [256, 128], "dtype": "float32"}, {"name": "StatefulPartitionedCall/efficient_sam/StatefulPartitionedCall_1/mask_decoder/transformer/layers_._1/cross_attn_token_to_image/v_proj/BiasAdd/ReadVariableOp", "shape": [128], "dtype": "float32"}, {"name": "StatefulPartitionedCall/efficient_sam/StatefulPartitionedCall_1/mask_decoder/transformer/layers_._1/cross_attn_token_to_image/v_proj/Tensordot/ReadVariableOp", "shape": [256, 128], "dtype": "float32"}, {"name": "StatefulPartitionedCall/efficient_sam/StatefulPartitionedCall_1/mask_decoder/transformer/layers_._1/layer_norm1/batchnorm/ReadVariableOp", "shape": [256], "dtype": "float32"}, {"name": "StatefulPartitionedCall/efficient_sam/StatefulPartitionedCall_1/mask_decoder/transformer/layers_._1/layer_norm1/batchnorm/mul/ReadVariableOp", "shape": [256], "dtype": "float32"}, {"name": "StatefulPartitionedCall/efficient_sam/StatefulPartitionedCall_1/mask_decoder/transformer/layers_._1/layer_norm2/batchnorm/ReadVariableOp", "shape": [256], "dtype": "float32"}, {"name": "StatefulPartitionedCall/efficient_sam/StatefulPartitionedCall_1/mask_decoder/transformer/layers_._1/layer_norm2/batchnorm/mul/ReadVariableOp", "shape": [256], "dtype": "float32"}, {"name": "StatefulPartitionedCall/efficient_sam/StatefulPartitionedCall_1/mask_decoder/transformer/layers_._1/layer_norm3/batchnorm/ReadVariableOp", "shape": [256], "dtype": "float32"}, {"name": "StatefulPartitionedCall/efficient_sam/StatefulPartitionedCall_1/mask_decoder/transformer/layers_._1/layer_norm3/batchnorm/mul/ReadVariableOp", "shape": [256], "dtype": "float32"}, {"name": "StatefulPartitionedCall/efficient_sam/StatefulPartitionedCall_1/mask_decoder/transformer/layers_._1/layer_norm4/batchnorm/ReadVariableOp", "shape": [256], "dtype": "float32"}, {"name": "StatefulPartitionedCall/efficient_sam/StatefulPartitionedCall_1/mask_decoder/transformer/layers_._1/layer_norm4/batchnorm/mul/ReadVariableOp", "shape": [256], "dtype": "float32"}, {"name": "StatefulPartitionedCall/efficient_sam/StatefulPartitionedCall_1/mask_decoder/transformer/layers_._1/mlp/fc/BiasAdd/ReadVariableOp", "shape": [256], "dtype": "float32"}, {"name": "StatefulPartitionedCall/efficient_sam/StatefulPartitionedCall_1/mask_decoder/transformer/layers_._1/mlp/fc/Tensordot/ReadVariableOp", "shape": [2048, 256], "dtype": "float32"}, {"name": "StatefulPartitionedCall/efficient_sam/StatefulPartitionedCall_1/mask_decoder/transformer/layers_._1/mlp/layers.0.0/BiasAdd/ReadVariableOp", "shape": [2048], "dtype": "float32"}, {"name": "StatefulPartitionedCall/efficient_sam/StatefulPartitionedCall_1/mask_decoder/transformer/layers_._1/mlp/layers.0.0/Tensordot/ReadVariableOp", "shape": [256, 2048], "dtype": "float32"}, {"name": "StatefulPartitionedCall/efficient_sam/StatefulPartitionedCall_1/mask_decoder/transformer/layers_._1/self_attn/k_proj/BiasAdd/ReadVariableOp", "shape": [256], "dtype": "float32"}, {"name": "StatefulPartitionedCall/efficient_sam/StatefulPartitionedCall_1/mask_decoder/transformer/layers_._1/self_attn/k_proj/Tensordot/ReadVariableOp", "shape": [256, 256], "dtype": "float32"}, {"name": "StatefulPartitionedCall/efficient_sam/StatefulPartitionedCall_1/mask_decoder/transformer/layers_._1/self_attn/out_proj/BiasAdd/ReadVariableOp", "shape": [256], "dtype": "float32"}, {"name": "StatefulPartitionedCall/efficient_sam/StatefulPartitionedCall_1/mask_decoder/transformer/layers_._1/self_attn/out_proj/Tensordot/ReadVariableOp", "shape": [256, 256], "dtype": "float32"}, {"name": "StatefulPartitionedCall/efficient_sam/StatefulPartitionedCall_1/mask_decoder/transformer/layers_._1/self_attn/q_proj/BiasAdd/ReadVariableOp", "shape": [256], "dtype": "float32"}, {"name": "StatefulPartitionedCall/efficient_sam/StatefulPartitionedCall_1/mask_decoder/transformer/layers_._1/self_attn/q_proj/Tensordot/ReadVariableOp", "shape": [256, 256], "dtype": "float32"}, {"name": "StatefulPartitionedCall/efficient_sam/StatefulPartitionedCall_1/mask_decoder/transformer/layers_._1/self_attn/v_proj/BiasAdd/ReadVariableOp", "shape": [256], "dtype": "float32"}, {"name": "ConstantFolding/StatefulPartitionedCall/efficient_sam/StatefulPartitionedCall_1/mask_decoder/transformer/concat/values_1_const_axis", "shape": [], "dtype": "int32"}, {"name": "ConstantFolding/StatefulPartitionedCall/efficient_sam/StatefulPartitionedCall_1/mask_decoder/Repeat/concat/values_1_const_axis", "shape": [], "dtype": "int32"}, {"name": "ConstantFolding/StatefulPartitionedCall/efficient_sam/StatefulPartitionedCall_1/mask_decoder/transformer/concat_1/values_1_const_axis", "shape": [], "dtype": "int32"}]}]}